<?xml version="1.0"?>
<net name="Model0" version="11">
	<layers>
		<layer id="0" name="x" type="Parameter" version="opset1">
			<data shape="1,3,640,640" element_type="f32" />
			<output>
				<port id="0" precision="FP32" names="x">
					<dim>1</dim>
					<dim>3</dim>
					<dim>640</dim>
					<dim>640</dim>
				</port>
			</output>
		</layer>
		<layer id="1" name="__module.model.23/aten::arange/Constant" type="Const" version="opset1">
			<data element_type="i32" shape="" offset="0" size="4" />
			<output>
				<port id="0" precision="I32" />
			</output>
		</layer>
		<layer id="2" name="x/fq_output_0/input_low" type="Const" version="opset1">
			<data element_type="f32" shape="" offset="0" size="4" />
			<output>
				<port id="0" precision="FP32" />
			</output>
		</layer>
		<layer id="3" name="x/fq_output_0/input_high" type="Const" version="opset1">
			<data element_type="f32" shape="" offset="4" size="4" />
			<output>
				<port id="0" precision="FP32" />
			</output>
		</layer>
		<layer id="4" name="x/fq_output_0/output_low" type="Const" version="opset1">
			<data element_type="f32" shape="" offset="0" size="4" />
			<output>
				<port id="0" precision="FP32" />
			</output>
		</layer>
		<layer id="5" name="x/fq_output_0/output_high" type="Const" version="opset1">
			<data element_type="f32" shape="" offset="4" size="4" />
			<output>
				<port id="0" precision="FP32" />
			</output>
		</layer>
		<layer id="6" name="x/fq_output_0" type="FakeQuantize" version="opset1">
			<data levels="256" auto_broadcast="numpy" />
			<input>
				<port id="0" precision="FP32">
					<dim>1</dim>
					<dim>3</dim>
					<dim>640</dim>
					<dim>640</dim>
				</port>
				<port id="1" precision="FP32" />
				<port id="2" precision="FP32" />
				<port id="3" precision="FP32" />
				<port id="4" precision="FP32" />
			</input>
			<output>
				<port id="5" precision="FP32">
					<dim>1</dim>
					<dim>3</dim>
					<dim>640</dim>
					<dim>640</dim>
				</port>
			</output>
		</layer>
		<layer id="7" name="Constant_542518" type="Const" version="opset1">
			<data element_type="i8" shape="16, 3, 3, 3" offset="8" size="432" />
			<output>
				<port id="0" precision="I8">
					<dim>16</dim>
					<dim>3</dim>
					<dim>3</dim>
					<dim>3</dim>
				</port>
			</output>
		</layer>
		<layer id="8" name="Convert_542519" type="Convert" version="opset1">
			<data destination_type="f32" />
			<input>
				<port id="0" precision="I8">
					<dim>16</dim>
					<dim>3</dim>
					<dim>3</dim>
					<dim>3</dim>
				</port>
			</input>
			<output>
				<port id="1" precision="FP32">
					<dim>16</dim>
					<dim>3</dim>
					<dim>3</dim>
					<dim>3</dim>
				</port>
			</output>
		</layer>
		<layer id="9" name="Constant_542520" type="Const" version="opset1">
			<data element_type="f32" shape="16, 1, 1, 1" offset="440" size="64" />
			<output>
				<port id="0" precision="FP32">
					<dim>16</dim>
					<dim>1</dim>
					<dim>1</dim>
					<dim>1</dim>
				</port>
			</output>
		</layer>
		<layer id="10" name="__module.model.0.conv/aten::_convolution/Convolution/fq_weights_1" type="Multiply" version="opset1">
			<data auto_broadcast="numpy" />
			<input>
				<port id="0" precision="FP32">
					<dim>16</dim>
					<dim>3</dim>
					<dim>3</dim>
					<dim>3</dim>
				</port>
				<port id="1" precision="FP32">
					<dim>16</dim>
					<dim>1</dim>
					<dim>1</dim>
					<dim>1</dim>
				</port>
			</input>
			<output>
				<port id="2" precision="FP32">
					<dim>16</dim>
					<dim>3</dim>
					<dim>3</dim>
					<dim>3</dim>
				</port>
			</output>
		</layer>
		<layer id="11" name="__module.model.0.conv/aten::_convolution/Convolution" type="Convolution" version="opset1">
			<data strides="2, 2" dilations="1, 1" pads_begin="1, 1" pads_end="1, 1" auto_pad="explicit" />
			<input>
				<port id="0" precision="FP32">
					<dim>1</dim>
					<dim>3</dim>
					<dim>640</dim>
					<dim>640</dim>
				</port>
				<port id="1" precision="FP32">
					<dim>16</dim>
					<dim>3</dim>
					<dim>3</dim>
					<dim>3</dim>
				</port>
			</input>
			<output>
				<port id="2" precision="FP32">
					<dim>1</dim>
					<dim>16</dim>
					<dim>320</dim>
					<dim>320</dim>
				</port>
			</output>
		</layer>
		<layer id="12" name="__module.model.0.conv/aten::_convolution/Reshape_compressed" type="Const" version="opset1">
			<data element_type="f16" shape="1, 16, 1, 1" offset="504" size="32" />
			<output>
				<port id="0" precision="FP16">
					<dim>1</dim>
					<dim>16</dim>
					<dim>1</dim>
					<dim>1</dim>
				</port>
			</output>
		</layer>
		<layer id="13" name="__module.model.0.conv/aten::_convolution/Reshape" type="Convert" version="opset1">
			<data destination_type="f32" />
			<rt_info>
				<attribute name="decompression" version="0" />
			</rt_info>
			<input>
				<port id="0" precision="FP16">
					<dim>1</dim>
					<dim>16</dim>
					<dim>1</dim>
					<dim>1</dim>
				</port>
			</input>
			<output>
				<port id="1" precision="FP32">
					<dim>1</dim>
					<dim>16</dim>
					<dim>1</dim>
					<dim>1</dim>
				</port>
			</output>
		</layer>
		<layer id="14" name="__module.model.0.conv/aten::_convolution/Add" type="Add" version="opset1">
			<data auto_broadcast="numpy" />
			<input>
				<port id="0" precision="FP32">
					<dim>1</dim>
					<dim>16</dim>
					<dim>320</dim>
					<dim>320</dim>
				</port>
				<port id="1" precision="FP32">
					<dim>1</dim>
					<dim>16</dim>
					<dim>1</dim>
					<dim>1</dim>
				</port>
			</input>
			<output>
				<port id="2" precision="FP32" names="93_1">
					<dim>1</dim>
					<dim>16</dim>
					<dim>320</dim>
					<dim>320</dim>
				</port>
			</output>
		</layer>
		<layer id="15" name="__module.model.23.cv3.2.1.1.act/aten::silu_/Swish" type="Swish" version="opset4">
			<input>
				<port id="0" precision="FP32">
					<dim>1</dim>
					<dim>16</dim>
					<dim>320</dim>
					<dim>320</dim>
				</port>
			</input>
			<output>
				<port id="1" precision="FP32" names="93,input.1">
					<dim>1</dim>
					<dim>16</dim>
					<dim>320</dim>
					<dim>320</dim>
				</port>
			</output>
		</layer>
		<layer id="16" name="__module.model.23.cv3.2.1.1.act/aten::silu_/Swish/fq_output_0/input_low" type="Const" version="opset1">
			<data element_type="f32" shape="" offset="536" size="4" />
			<output>
				<port id="0" precision="FP32" />
			</output>
		</layer>
		<layer id="17" name="__module.model.23.cv3.2.1.1.act/aten::silu_/Swish/fq_output_0/input_high" type="Const" version="opset1">
			<data element_type="f32" shape="" offset="540" size="4" />
			<output>
				<port id="0" precision="FP32" />
			</output>
		</layer>
		<layer id="18" name="__module.model.23.cv3.2.1.1.act/aten::silu_/Swish/fq_output_0/output_low" type="Const" version="opset1">
			<data element_type="f32" shape="" offset="536" size="4" />
			<output>
				<port id="0" precision="FP32" />
			</output>
		</layer>
		<layer id="19" name="__module.model.23.cv3.2.1.1.act/aten::silu_/Swish/fq_output_0/output_high" type="Const" version="opset1">
			<data element_type="f32" shape="" offset="540" size="4" />
			<output>
				<port id="0" precision="FP32" />
			</output>
		</layer>
		<layer id="20" name="__module.model.23.cv3.2.1.1.act/aten::silu_/Swish/fq_output_0" type="FakeQuantize" version="opset1">
			<data levels="256" auto_broadcast="numpy" />
			<input>
				<port id="0" precision="FP32">
					<dim>1</dim>
					<dim>16</dim>
					<dim>320</dim>
					<dim>320</dim>
				</port>
				<port id="1" precision="FP32" />
				<port id="2" precision="FP32" />
				<port id="3" precision="FP32" />
				<port id="4" precision="FP32" />
			</input>
			<output>
				<port id="5" precision="FP32">
					<dim>1</dim>
					<dim>16</dim>
					<dim>320</dim>
					<dim>320</dim>
				</port>
			</output>
		</layer>
		<layer id="21" name="Constant_542523" type="Const" version="opset1">
			<data element_type="i8" shape="32, 16, 3, 3" offset="544" size="4608" />
			<output>
				<port id="0" precision="I8">
					<dim>32</dim>
					<dim>16</dim>
					<dim>3</dim>
					<dim>3</dim>
				</port>
			</output>
		</layer>
		<layer id="22" name="Convert_542524" type="Convert" version="opset1">
			<data destination_type="f32" />
			<input>
				<port id="0" precision="I8">
					<dim>32</dim>
					<dim>16</dim>
					<dim>3</dim>
					<dim>3</dim>
				</port>
			</input>
			<output>
				<port id="1" precision="FP32">
					<dim>32</dim>
					<dim>16</dim>
					<dim>3</dim>
					<dim>3</dim>
				</port>
			</output>
		</layer>
		<layer id="23" name="Constant_542525" type="Const" version="opset1">
			<data element_type="f32" shape="32, 1, 1, 1" offset="5152" size="128" />
			<output>
				<port id="0" precision="FP32">
					<dim>32</dim>
					<dim>1</dim>
					<dim>1</dim>
					<dim>1</dim>
				</port>
			</output>
		</layer>
		<layer id="24" name="__module.model.1.conv/aten::_convolution/Convolution/fq_weights_1" type="Multiply" version="opset1">
			<data auto_broadcast="numpy" />
			<input>
				<port id="0" precision="FP32">
					<dim>32</dim>
					<dim>16</dim>
					<dim>3</dim>
					<dim>3</dim>
				</port>
				<port id="1" precision="FP32">
					<dim>32</dim>
					<dim>1</dim>
					<dim>1</dim>
					<dim>1</dim>
				</port>
			</input>
			<output>
				<port id="2" precision="FP32">
					<dim>32</dim>
					<dim>16</dim>
					<dim>3</dim>
					<dim>3</dim>
				</port>
			</output>
		</layer>
		<layer id="25" name="__module.model.1.conv/aten::_convolution/Convolution" type="Convolution" version="opset1">
			<data strides="2, 2" dilations="1, 1" pads_begin="1, 1" pads_end="1, 1" auto_pad="explicit" />
			<input>
				<port id="0" precision="FP32">
					<dim>1</dim>
					<dim>16</dim>
					<dim>320</dim>
					<dim>320</dim>
				</port>
				<port id="1" precision="FP32">
					<dim>32</dim>
					<dim>16</dim>
					<dim>3</dim>
					<dim>3</dim>
				</port>
			</input>
			<output>
				<port id="2" precision="FP32">
					<dim>1</dim>
					<dim>32</dim>
					<dim>160</dim>
					<dim>160</dim>
				</port>
			</output>
		</layer>
		<layer id="26" name="__module.model.1.conv/aten::_convolution/Reshape_compressed" type="Const" version="opset1">
			<data element_type="f16" shape="1, 32, 1, 1" offset="5280" size="64" />
			<output>
				<port id="0" precision="FP16">
					<dim>1</dim>
					<dim>32</dim>
					<dim>1</dim>
					<dim>1</dim>
				</port>
			</output>
		</layer>
		<layer id="27" name="__module.model.1.conv/aten::_convolution/Reshape" type="Convert" version="opset1">
			<data destination_type="f32" />
			<rt_info>
				<attribute name="decompression" version="0" />
			</rt_info>
			<input>
				<port id="0" precision="FP16">
					<dim>1</dim>
					<dim>32</dim>
					<dim>1</dim>
					<dim>1</dim>
				</port>
			</input>
			<output>
				<port id="1" precision="FP32">
					<dim>1</dim>
					<dim>32</dim>
					<dim>1</dim>
					<dim>1</dim>
				</port>
			</output>
		</layer>
		<layer id="28" name="__module.model.1.conv/aten::_convolution/Add" type="Add" version="opset1">
			<data auto_broadcast="numpy" />
			<input>
				<port id="0" precision="FP32">
					<dim>1</dim>
					<dim>32</dim>
					<dim>160</dim>
					<dim>160</dim>
				</port>
				<port id="1" precision="FP32">
					<dim>1</dim>
					<dim>32</dim>
					<dim>1</dim>
					<dim>1</dim>
				</port>
			</input>
			<output>
				<port id="2" precision="FP32" names="107_1">
					<dim>1</dim>
					<dim>32</dim>
					<dim>160</dim>
					<dim>160</dim>
				</port>
			</output>
		</layer>
		<layer id="29" name="__module.model.23.cv3.2.1.1.act/aten::silu_/Swish_1" type="Swish" version="opset4">
			<input>
				<port id="0" precision="FP32">
					<dim>1</dim>
					<dim>32</dim>
					<dim>160</dim>
					<dim>160</dim>
				</port>
			</input>
			<output>
				<port id="1" precision="FP32" names="107,input.5">
					<dim>1</dim>
					<dim>32</dim>
					<dim>160</dim>
					<dim>160</dim>
				</port>
			</output>
		</layer>
		<layer id="30" name="__module.model.23.cv3.2.1.1.act/aten::silu_/Swish_1/fq_output_0/input_low" type="Const" version="opset1">
			<data element_type="f32" shape="" offset="5344" size="4" />
			<output>
				<port id="0" precision="FP32" />
			</output>
		</layer>
		<layer id="31" name="__module.model.23.cv3.2.1.1.act/aten::silu_/Swish_1/fq_output_0/input_high" type="Const" version="opset1">
			<data element_type="f32" shape="" offset="5348" size="4" />
			<output>
				<port id="0" precision="FP32" />
			</output>
		</layer>
		<layer id="32" name="__module.model.23.cv3.2.1.1.act/aten::silu_/Swish_1/fq_output_0/output_low" type="Const" version="opset1">
			<data element_type="f32" shape="" offset="5344" size="4" />
			<output>
				<port id="0" precision="FP32" />
			</output>
		</layer>
		<layer id="33" name="__module.model.23.cv3.2.1.1.act/aten::silu_/Swish_1/fq_output_0/output_high" type="Const" version="opset1">
			<data element_type="f32" shape="" offset="5348" size="4" />
			<output>
				<port id="0" precision="FP32" />
			</output>
		</layer>
		<layer id="34" name="__module.model.23.cv3.2.1.1.act/aten::silu_/Swish_1/fq_output_0" type="FakeQuantize" version="opset1">
			<data levels="256" auto_broadcast="numpy" />
			<input>
				<port id="0" precision="FP32">
					<dim>1</dim>
					<dim>32</dim>
					<dim>160</dim>
					<dim>160</dim>
				</port>
				<port id="1" precision="FP32" />
				<port id="2" precision="FP32" />
				<port id="3" precision="FP32" />
				<port id="4" precision="FP32" />
			</input>
			<output>
				<port id="5" precision="FP32">
					<dim>1</dim>
					<dim>32</dim>
					<dim>160</dim>
					<dim>160</dim>
				</port>
			</output>
		</layer>
		<layer id="35" name="Constant_542528" type="Const" version="opset1">
			<data element_type="i8" shape="32, 32, 1, 1" offset="5352" size="1024" />
			<output>
				<port id="0" precision="I8">
					<dim>32</dim>
					<dim>32</dim>
					<dim>1</dim>
					<dim>1</dim>
				</port>
			</output>
		</layer>
		<layer id="36" name="Convert_542529" type="Convert" version="opset1">
			<data destination_type="f32" />
			<input>
				<port id="0" precision="I8">
					<dim>32</dim>
					<dim>32</dim>
					<dim>1</dim>
					<dim>1</dim>
				</port>
			</input>
			<output>
				<port id="1" precision="FP32">
					<dim>32</dim>
					<dim>32</dim>
					<dim>1</dim>
					<dim>1</dim>
				</port>
			</output>
		</layer>
		<layer id="37" name="Constant_542530" type="Const" version="opset1">
			<data element_type="f32" shape="32, 1, 1, 1" offset="6376" size="128" />
			<output>
				<port id="0" precision="FP32">
					<dim>32</dim>
					<dim>1</dim>
					<dim>1</dim>
					<dim>1</dim>
				</port>
			</output>
		</layer>
		<layer id="38" name="__module.model.2.cv1.conv/aten::_convolution/Convolution/fq_weights_1" type="Multiply" version="opset1">
			<data auto_broadcast="numpy" />
			<input>
				<port id="0" precision="FP32">
					<dim>32</dim>
					<dim>32</dim>
					<dim>1</dim>
					<dim>1</dim>
				</port>
				<port id="1" precision="FP32">
					<dim>32</dim>
					<dim>1</dim>
					<dim>1</dim>
					<dim>1</dim>
				</port>
			</input>
			<output>
				<port id="2" precision="FP32">
					<dim>32</dim>
					<dim>32</dim>
					<dim>1</dim>
					<dim>1</dim>
				</port>
			</output>
		</layer>
		<layer id="39" name="__module.model.2.cv1.conv/aten::_convolution/Convolution" type="Convolution" version="opset1">
			<data strides="1, 1" dilations="1, 1" pads_begin="0, 0" pads_end="0, 0" auto_pad="explicit" />
			<input>
				<port id="0" precision="FP32">
					<dim>1</dim>
					<dim>32</dim>
					<dim>160</dim>
					<dim>160</dim>
				</port>
				<port id="1" precision="FP32">
					<dim>32</dim>
					<dim>32</dim>
					<dim>1</dim>
					<dim>1</dim>
				</port>
			</input>
			<output>
				<port id="2" precision="FP32">
					<dim>1</dim>
					<dim>32</dim>
					<dim>160</dim>
					<dim>160</dim>
				</port>
			</output>
		</layer>
		<layer id="40" name="__module.model.2.cv1.conv/aten::_convolution/Reshape_compressed" type="Const" version="opset1">
			<data element_type="f16" shape="1, 32, 1, 1" offset="6504" size="64" />
			<output>
				<port id="0" precision="FP16">
					<dim>1</dim>
					<dim>32</dim>
					<dim>1</dim>
					<dim>1</dim>
				</port>
			</output>
		</layer>
		<layer id="41" name="__module.model.2.cv1.conv/aten::_convolution/Reshape" type="Convert" version="opset1">
			<data destination_type="f32" />
			<rt_info>
				<attribute name="decompression" version="0" />
			</rt_info>
			<input>
				<port id="0" precision="FP16">
					<dim>1</dim>
					<dim>32</dim>
					<dim>1</dim>
					<dim>1</dim>
				</port>
			</input>
			<output>
				<port id="1" precision="FP32">
					<dim>1</dim>
					<dim>32</dim>
					<dim>1</dim>
					<dim>1</dim>
				</port>
			</output>
		</layer>
		<layer id="42" name="__module.model.2.cv1.conv/aten::_convolution/Add" type="Add" version="opset1">
			<data auto_broadcast="numpy" />
			<input>
				<port id="0" precision="FP32">
					<dim>1</dim>
					<dim>32</dim>
					<dim>160</dim>
					<dim>160</dim>
				</port>
				<port id="1" precision="FP32">
					<dim>1</dim>
					<dim>32</dim>
					<dim>1</dim>
					<dim>1</dim>
				</port>
			</input>
			<output>
				<port id="2" precision="FP32" names="125_1">
					<dim>1</dim>
					<dim>32</dim>
					<dim>160</dim>
					<dim>160</dim>
				</port>
			</output>
		</layer>
		<layer id="43" name="__module.model.23.cv3.2.1.1.act/aten::silu_/Swish_2" type="Swish" version="opset4">
			<input>
				<port id="0" precision="FP32">
					<dim>1</dim>
					<dim>32</dim>
					<dim>160</dim>
					<dim>160</dim>
				</port>
			</input>
			<output>
				<port id="1" precision="FP32" names="125,input.9">
					<dim>1</dim>
					<dim>32</dim>
					<dim>160</dim>
					<dim>160</dim>
				</port>
			</output>
		</layer>
		<layer id="44" name="__module.model.23.cv3.2.1.1.act/aten::silu_/Swish_2/fq_output_0/input_low" type="Const" version="opset1">
			<data element_type="f32" shape="" offset="6568" size="4" />
			<output>
				<port id="0" precision="FP32" />
			</output>
		</layer>
		<layer id="45" name="__module.model.23.cv3.2.1.1.act/aten::silu_/Swish_2/fq_output_0/input_high" type="Const" version="opset1">
			<data element_type="f32" shape="" offset="6572" size="4" />
			<output>
				<port id="0" precision="FP32" />
			</output>
		</layer>
		<layer id="46" name="__module.model.23.cv3.2.1.1.act/aten::silu_/Swish_2/fq_output_0/output_low" type="Const" version="opset1">
			<data element_type="f32" shape="" offset="6568" size="4" />
			<output>
				<port id="0" precision="FP32" />
			</output>
		</layer>
		<layer id="47" name="__module.model.23.cv3.2.1.1.act/aten::silu_/Swish_2/fq_output_0/output_high" type="Const" version="opset1">
			<data element_type="f32" shape="" offset="6572" size="4" />
			<output>
				<port id="0" precision="FP32" />
			</output>
		</layer>
		<layer id="48" name="__module.model.23.cv3.2.1.1.act/aten::silu_/Swish_2/fq_output_0" type="FakeQuantize" version="opset1">
			<data levels="256" auto_broadcast="numpy" />
			<input>
				<port id="0" precision="FP32">
					<dim>1</dim>
					<dim>32</dim>
					<dim>160</dim>
					<dim>160</dim>
				</port>
				<port id="1" precision="FP32" />
				<port id="2" precision="FP32" />
				<port id="3" precision="FP32" />
				<port id="4" precision="FP32" />
			</input>
			<output>
				<port id="5" precision="FP32">
					<dim>1</dim>
					<dim>32</dim>
					<dim>160</dim>
					<dim>160</dim>
				</port>
			</output>
		</layer>
		<layer id="49" name="113" type="Const" version="opset1">
			<data element_type="i64" shape="" offset="6576" size="8" />
			<output>
				<port id="0" precision="I64" names="113" />
			</output>
		</layer>
		<layer id="50" name="Constant_216" type="Const" version="opset1">
			<data element_type="i64" shape="2" offset="6584" size="16" />
			<output>
				<port id="0" precision="I64" names="127">
					<dim>2</dim>
				</port>
			</output>
		</layer>
		<layer id="51" name="__module.model.2/prim::ListUnpack" type="VariadicSplit" version="opset1">
			<input>
				<port id="0" precision="FP32">
					<dim>1</dim>
					<dim>32</dim>
					<dim>160</dim>
					<dim>160</dim>
				</port>
				<port id="1" precision="I64" />
				<port id="2" precision="I64">
					<dim>2</dim>
				</port>
			</input>
			<output>
				<port id="3" precision="FP32" names="129">
					<dim>1</dim>
					<dim>16</dim>
					<dim>160</dim>
					<dim>160</dim>
				</port>
				<port id="4" precision="FP32" names="130,input.11">
					<dim>1</dim>
					<dim>16</dim>
					<dim>160</dim>
					<dim>160</dim>
				</port>
			</output>
		</layer>
		<layer id="52" name="Constant_542533" type="Const" version="opset1">
			<data element_type="i8" shape="8, 16, 3, 3" offset="6600" size="1152" />
			<output>
				<port id="0" precision="I8">
					<dim>8</dim>
					<dim>16</dim>
					<dim>3</dim>
					<dim>3</dim>
				</port>
			</output>
		</layer>
		<layer id="53" name="Convert_542534" type="Convert" version="opset1">
			<data destination_type="f32" />
			<input>
				<port id="0" precision="I8">
					<dim>8</dim>
					<dim>16</dim>
					<dim>3</dim>
					<dim>3</dim>
				</port>
			</input>
			<output>
				<port id="1" precision="FP32">
					<dim>8</dim>
					<dim>16</dim>
					<dim>3</dim>
					<dim>3</dim>
				</port>
			</output>
		</layer>
		<layer id="54" name="Constant_542535" type="Const" version="opset1">
			<data element_type="f32" shape="8, 1, 1, 1" offset="7752" size="32" />
			<output>
				<port id="0" precision="FP32">
					<dim>8</dim>
					<dim>1</dim>
					<dim>1</dim>
					<dim>1</dim>
				</port>
			</output>
		</layer>
		<layer id="55" name="__module.model.2.m.0.cv1.conv/aten::_convolution/Convolution/fq_weights_1" type="Multiply" version="opset1">
			<data auto_broadcast="numpy" />
			<input>
				<port id="0" precision="FP32">
					<dim>8</dim>
					<dim>16</dim>
					<dim>3</dim>
					<dim>3</dim>
				</port>
				<port id="1" precision="FP32">
					<dim>8</dim>
					<dim>1</dim>
					<dim>1</dim>
					<dim>1</dim>
				</port>
			</input>
			<output>
				<port id="2" precision="FP32">
					<dim>8</dim>
					<dim>16</dim>
					<dim>3</dim>
					<dim>3</dim>
				</port>
			</output>
		</layer>
		<layer id="56" name="__module.model.2.m.0.cv1.conv/aten::_convolution/Convolution" type="Convolution" version="opset1">
			<data strides="1, 1" dilations="1, 1" pads_begin="1, 1" pads_end="1, 1" auto_pad="explicit" />
			<input>
				<port id="0" precision="FP32">
					<dim>1</dim>
					<dim>16</dim>
					<dim>160</dim>
					<dim>160</dim>
				</port>
				<port id="1" precision="FP32">
					<dim>8</dim>
					<dim>16</dim>
					<dim>3</dim>
					<dim>3</dim>
				</port>
			</input>
			<output>
				<port id="2" precision="FP32">
					<dim>1</dim>
					<dim>8</dim>
					<dim>160</dim>
					<dim>160</dim>
				</port>
			</output>
		</layer>
		<layer id="57" name="__module.model.2.m.0.cv1.conv/aten::_convolution/Reshape_compressed" type="Const" version="opset1">
			<data element_type="f16" shape="1, 8, 1, 1" offset="7784" size="16" />
			<output>
				<port id="0" precision="FP16">
					<dim>1</dim>
					<dim>8</dim>
					<dim>1</dim>
					<dim>1</dim>
				</port>
			</output>
		</layer>
		<layer id="58" name="__module.model.2.m.0.cv1.conv/aten::_convolution/Reshape" type="Convert" version="opset1">
			<data destination_type="f32" />
			<rt_info>
				<attribute name="decompression" version="0" />
			</rt_info>
			<input>
				<port id="0" precision="FP16">
					<dim>1</dim>
					<dim>8</dim>
					<dim>1</dim>
					<dim>1</dim>
				</port>
			</input>
			<output>
				<port id="1" precision="FP32">
					<dim>1</dim>
					<dim>8</dim>
					<dim>1</dim>
					<dim>1</dim>
				</port>
			</output>
		</layer>
		<layer id="59" name="__module.model.2.m.0.cv1.conv/aten::_convolution/Add" type="Add" version="opset1">
			<data auto_broadcast="numpy" />
			<input>
				<port id="0" precision="FP32">
					<dim>1</dim>
					<dim>8</dim>
					<dim>160</dim>
					<dim>160</dim>
				</port>
				<port id="1" precision="FP32">
					<dim>1</dim>
					<dim>8</dim>
					<dim>1</dim>
					<dim>1</dim>
				</port>
			</input>
			<output>
				<port id="2" precision="FP32" names="140_1">
					<dim>1</dim>
					<dim>8</dim>
					<dim>160</dim>
					<dim>160</dim>
				</port>
			</output>
		</layer>
		<layer id="60" name="__module.model.23.cv3.2.1.1.act/aten::silu_/Swish_3" type="Swish" version="opset4">
			<input>
				<port id="0" precision="FP32">
					<dim>1</dim>
					<dim>8</dim>
					<dim>160</dim>
					<dim>160</dim>
				</port>
			</input>
			<output>
				<port id="1" precision="FP32" names="140,input.13">
					<dim>1</dim>
					<dim>8</dim>
					<dim>160</dim>
					<dim>160</dim>
				</port>
			</output>
		</layer>
		<layer id="61" name="__module.model.23.cv3.2.1.1.act/aten::silu_/Swish_3/fq_output_0/input_low" type="Const" version="opset1">
			<data element_type="f32" shape="" offset="7800" size="4" />
			<output>
				<port id="0" precision="FP32" />
			</output>
		</layer>
		<layer id="62" name="__module.model.23.cv3.2.1.1.act/aten::silu_/Swish_3/fq_output_0/input_high" type="Const" version="opset1">
			<data element_type="f32" shape="" offset="7804" size="4" />
			<output>
				<port id="0" precision="FP32" />
			</output>
		</layer>
		<layer id="63" name="__module.model.23.cv3.2.1.1.act/aten::silu_/Swish_3/fq_output_0/output_low" type="Const" version="opset1">
			<data element_type="f32" shape="" offset="7800" size="4" />
			<output>
				<port id="0" precision="FP32" />
			</output>
		</layer>
		<layer id="64" name="__module.model.23.cv3.2.1.1.act/aten::silu_/Swish_3/fq_output_0/output_high" type="Const" version="opset1">
			<data element_type="f32" shape="" offset="7804" size="4" />
			<output>
				<port id="0" precision="FP32" />
			</output>
		</layer>
		<layer id="65" name="__module.model.23.cv3.2.1.1.act/aten::silu_/Swish_3/fq_output_0" type="FakeQuantize" version="opset1">
			<data levels="256" auto_broadcast="numpy" />
			<input>
				<port id="0" precision="FP32">
					<dim>1</dim>
					<dim>8</dim>
					<dim>160</dim>
					<dim>160</dim>
				</port>
				<port id="1" precision="FP32" />
				<port id="2" precision="FP32" />
				<port id="3" precision="FP32" />
				<port id="4" precision="FP32" />
			</input>
			<output>
				<port id="5" precision="FP32">
					<dim>1</dim>
					<dim>8</dim>
					<dim>160</dim>
					<dim>160</dim>
				</port>
			</output>
		</layer>
		<layer id="66" name="Constant_542538" type="Const" version="opset1">
			<data element_type="i8" shape="16, 8, 3, 3" offset="7808" size="1152" />
			<output>
				<port id="0" precision="I8">
					<dim>16</dim>
					<dim>8</dim>
					<dim>3</dim>
					<dim>3</dim>
				</port>
			</output>
		</layer>
		<layer id="67" name="Convert_542539" type="Convert" version="opset1">
			<data destination_type="f32" />
			<input>
				<port id="0" precision="I8">
					<dim>16</dim>
					<dim>8</dim>
					<dim>3</dim>
					<dim>3</dim>
				</port>
			</input>
			<output>
				<port id="1" precision="FP32">
					<dim>16</dim>
					<dim>8</dim>
					<dim>3</dim>
					<dim>3</dim>
				</port>
			</output>
		</layer>
		<layer id="68" name="Constant_542540" type="Const" version="opset1">
			<data element_type="f32" shape="16, 1, 1, 1" offset="8960" size="64" />
			<output>
				<port id="0" precision="FP32">
					<dim>16</dim>
					<dim>1</dim>
					<dim>1</dim>
					<dim>1</dim>
				</port>
			</output>
		</layer>
		<layer id="69" name="__module.model.2.m.0.cv2.conv/aten::_convolution/Convolution/fq_weights_1" type="Multiply" version="opset1">
			<data auto_broadcast="numpy" />
			<input>
				<port id="0" precision="FP32">
					<dim>16</dim>
					<dim>8</dim>
					<dim>3</dim>
					<dim>3</dim>
				</port>
				<port id="1" precision="FP32">
					<dim>16</dim>
					<dim>1</dim>
					<dim>1</dim>
					<dim>1</dim>
				</port>
			</input>
			<output>
				<port id="2" precision="FP32">
					<dim>16</dim>
					<dim>8</dim>
					<dim>3</dim>
					<dim>3</dim>
				</port>
			</output>
		</layer>
		<layer id="70" name="__module.model.2.m.0.cv2.conv/aten::_convolution/Convolution" type="Convolution" version="opset1">
			<data strides="1, 1" dilations="1, 1" pads_begin="1, 1" pads_end="1, 1" auto_pad="explicit" />
			<input>
				<port id="0" precision="FP32">
					<dim>1</dim>
					<dim>8</dim>
					<dim>160</dim>
					<dim>160</dim>
				</port>
				<port id="1" precision="FP32">
					<dim>16</dim>
					<dim>8</dim>
					<dim>3</dim>
					<dim>3</dim>
				</port>
			</input>
			<output>
				<port id="2" precision="FP32">
					<dim>1</dim>
					<dim>16</dim>
					<dim>160</dim>
					<dim>160</dim>
				</port>
			</output>
		</layer>
		<layer id="71" name="__module.model.2.m.0.cv2.conv/aten::_convolution/Reshape_compressed" type="Const" version="opset1">
			<data element_type="f16" shape="1, 16, 1, 1" offset="9024" size="32" />
			<output>
				<port id="0" precision="FP16">
					<dim>1</dim>
					<dim>16</dim>
					<dim>1</dim>
					<dim>1</dim>
				</port>
			</output>
		</layer>
		<layer id="72" name="__module.model.2.m.0.cv2.conv/aten::_convolution/Reshape" type="Convert" version="opset1">
			<data destination_type="f32" />
			<rt_info>
				<attribute name="decompression" version="0" />
			</rt_info>
			<input>
				<port id="0" precision="FP16">
					<dim>1</dim>
					<dim>16</dim>
					<dim>1</dim>
					<dim>1</dim>
				</port>
			</input>
			<output>
				<port id="1" precision="FP32">
					<dim>1</dim>
					<dim>16</dim>
					<dim>1</dim>
					<dim>1</dim>
				</port>
			</output>
		</layer>
		<layer id="73" name="__module.model.2.m.0.cv2.conv/aten::_convolution/Add" type="Add" version="opset1">
			<data auto_broadcast="numpy" />
			<input>
				<port id="0" precision="FP32">
					<dim>1</dim>
					<dim>16</dim>
					<dim>160</dim>
					<dim>160</dim>
				</port>
				<port id="1" precision="FP32">
					<dim>1</dim>
					<dim>16</dim>
					<dim>1</dim>
					<dim>1</dim>
				</port>
			</input>
			<output>
				<port id="2" precision="FP32" names="149_1">
					<dim>1</dim>
					<dim>16</dim>
					<dim>160</dim>
					<dim>160</dim>
				</port>
			</output>
		</layer>
		<layer id="74" name="__module.model.23.cv3.2.1.1.act/aten::silu_/Swish_4" type="Swish" version="opset4">
			<input>
				<port id="0" precision="FP32">
					<dim>1</dim>
					<dim>16</dim>
					<dim>160</dim>
					<dim>160</dim>
				</port>
			</input>
			<output>
				<port id="1" precision="FP32" names="149,input.17">
					<dim>1</dim>
					<dim>16</dim>
					<dim>160</dim>
					<dim>160</dim>
				</port>
			</output>
		</layer>
		<layer id="75" name="__module.model.23.cv3.2.1.1.act/aten::silu_/Swish_4/fq_output_0/input_low" type="Const" version="opset1">
			<data element_type="f32" shape="" offset="9056" size="4" />
			<output>
				<port id="0" precision="FP32" />
			</output>
		</layer>
		<layer id="76" name="__module.model.23.cv3.2.1.1.act/aten::silu_/Swish_4/fq_output_0/input_high" type="Const" version="opset1">
			<data element_type="f32" shape="" offset="9060" size="4" />
			<output>
				<port id="0" precision="FP32" />
			</output>
		</layer>
		<layer id="77" name="__module.model.23.cv3.2.1.1.act/aten::silu_/Swish_4/fq_output_0/output_low" type="Const" version="opset1">
			<data element_type="f32" shape="" offset="9056" size="4" />
			<output>
				<port id="0" precision="FP32" />
			</output>
		</layer>
		<layer id="78" name="__module.model.23.cv3.2.1.1.act/aten::silu_/Swish_4/fq_output_0/output_high" type="Const" version="opset1">
			<data element_type="f32" shape="" offset="9060" size="4" />
			<output>
				<port id="0" precision="FP32" />
			</output>
		</layer>
		<layer id="79" name="__module.model.23.cv3.2.1.1.act/aten::silu_/Swish_4/fq_output_0" type="FakeQuantize" version="opset1">
			<data levels="256" auto_broadcast="numpy" />
			<input>
				<port id="0" precision="FP32">
					<dim>1</dim>
					<dim>16</dim>
					<dim>160</dim>
					<dim>160</dim>
				</port>
				<port id="1" precision="FP32" />
				<port id="2" precision="FP32" />
				<port id="3" precision="FP32" />
				<port id="4" precision="FP32" />
			</input>
			<output>
				<port id="5" precision="FP32">
					<dim>1</dim>
					<dim>16</dim>
					<dim>160</dim>
					<dim>160</dim>
				</port>
			</output>
		</layer>
		<layer id="80" name="__module.model.2.m.0/aten::add/Add" type="Add" version="opset1">
			<data auto_broadcast="numpy" />
			<input>
				<port id="0" precision="FP32">
					<dim>1</dim>
					<dim>16</dim>
					<dim>160</dim>
					<dim>160</dim>
				</port>
				<port id="1" precision="FP32">
					<dim>1</dim>
					<dim>16</dim>
					<dim>160</dim>
					<dim>160</dim>
				</port>
			</input>
			<output>
				<port id="2" precision="FP32" names="151">
					<dim>1</dim>
					<dim>16</dim>
					<dim>160</dim>
					<dim>160</dim>
				</port>
			</output>
		</layer>
		<layer id="81" name="__module.model.2.m.0/aten::add/Add/fq_output_0/input_low" type="Const" version="opset1">
			<data element_type="f32" shape="" offset="6568" size="4" />
			<output>
				<port id="0" precision="FP32" />
			</output>
		</layer>
		<layer id="82" name="__module.model.2.m.0/aten::add/Add/fq_output_0/input_high" type="Const" version="opset1">
			<data element_type="f32" shape="" offset="6572" size="4" />
			<output>
				<port id="0" precision="FP32" />
			</output>
		</layer>
		<layer id="83" name="__module.model.2.m.0/aten::add/Add/fq_output_0/output_low" type="Const" version="opset1">
			<data element_type="f32" shape="" offset="6568" size="4" />
			<output>
				<port id="0" precision="FP32" />
			</output>
		</layer>
		<layer id="84" name="__module.model.2.m.0/aten::add/Add/fq_output_0/output_high" type="Const" version="opset1">
			<data element_type="f32" shape="" offset="6572" size="4" />
			<output>
				<port id="0" precision="FP32" />
			</output>
		</layer>
		<layer id="85" name="__module.model.2.m.0/aten::add/Add/fq_output_0" type="FakeQuantize" version="opset1">
			<data levels="256" auto_broadcast="numpy" />
			<input>
				<port id="0" precision="FP32">
					<dim>1</dim>
					<dim>16</dim>
					<dim>160</dim>
					<dim>160</dim>
				</port>
				<port id="1" precision="FP32" />
				<port id="2" precision="FP32" />
				<port id="3" precision="FP32" />
				<port id="4" precision="FP32" />
			</input>
			<output>
				<port id="5" precision="FP32">
					<dim>1</dim>
					<dim>16</dim>
					<dim>160</dim>
					<dim>160</dim>
				</port>
			</output>
		</layer>
		<layer id="86" name="__module.model.2/aten::cat/Concat" type="Concat" version="opset1">
			<data axis="1" />
			<input>
				<port id="0" precision="FP32">
					<dim>1</dim>
					<dim>16</dim>
					<dim>160</dim>
					<dim>160</dim>
				</port>
				<port id="1" precision="FP32">
					<dim>1</dim>
					<dim>16</dim>
					<dim>160</dim>
					<dim>160</dim>
				</port>
				<port id="2" precision="FP32">
					<dim>1</dim>
					<dim>16</dim>
					<dim>160</dim>
					<dim>160</dim>
				</port>
			</input>
			<output>
				<port id="3" precision="FP32" names="153,input.19">
					<dim>1</dim>
					<dim>48</dim>
					<dim>160</dim>
					<dim>160</dim>
				</port>
			</output>
		</layer>
		<layer id="87" name="Constant_542543" type="Const" version="opset1">
			<data element_type="i8" shape="64, 48, 1, 1" offset="9064" size="3072" />
			<output>
				<port id="0" precision="I8">
					<dim>64</dim>
					<dim>48</dim>
					<dim>1</dim>
					<dim>1</dim>
				</port>
			</output>
		</layer>
		<layer id="88" name="Convert_542544" type="Convert" version="opset1">
			<data destination_type="f32" />
			<input>
				<port id="0" precision="I8">
					<dim>64</dim>
					<dim>48</dim>
					<dim>1</dim>
					<dim>1</dim>
				</port>
			</input>
			<output>
				<port id="1" precision="FP32">
					<dim>64</dim>
					<dim>48</dim>
					<dim>1</dim>
					<dim>1</dim>
				</port>
			</output>
		</layer>
		<layer id="89" name="Constant_542545" type="Const" version="opset1">
			<data element_type="f32" shape="64, 1, 1, 1" offset="12136" size="256" />
			<output>
				<port id="0" precision="FP32">
					<dim>64</dim>
					<dim>1</dim>
					<dim>1</dim>
					<dim>1</dim>
				</port>
			</output>
		</layer>
		<layer id="90" name="__module.model.2.cv2.conv/aten::_convolution/Convolution/fq_weights_1" type="Multiply" version="opset1">
			<data auto_broadcast="numpy" />
			<input>
				<port id="0" precision="FP32">
					<dim>64</dim>
					<dim>48</dim>
					<dim>1</dim>
					<dim>1</dim>
				</port>
				<port id="1" precision="FP32">
					<dim>64</dim>
					<dim>1</dim>
					<dim>1</dim>
					<dim>1</dim>
				</port>
			</input>
			<output>
				<port id="2" precision="FP32">
					<dim>64</dim>
					<dim>48</dim>
					<dim>1</dim>
					<dim>1</dim>
				</port>
			</output>
		</layer>
		<layer id="91" name="__module.model.2.cv2.conv/aten::_convolution/Convolution" type="Convolution" version="opset1">
			<data strides="1, 1" dilations="1, 1" pads_begin="0, 0" pads_end="0, 0" auto_pad="explicit" />
			<input>
				<port id="0" precision="FP32">
					<dim>1</dim>
					<dim>48</dim>
					<dim>160</dim>
					<dim>160</dim>
				</port>
				<port id="1" precision="FP32">
					<dim>64</dim>
					<dim>48</dim>
					<dim>1</dim>
					<dim>1</dim>
				</port>
			</input>
			<output>
				<port id="2" precision="FP32">
					<dim>1</dim>
					<dim>64</dim>
					<dim>160</dim>
					<dim>160</dim>
				</port>
			</output>
		</layer>
		<layer id="92" name="__module.model.2.cv2.conv/aten::_convolution/Reshape_compressed" type="Const" version="opset1">
			<data element_type="f16" shape="1, 64, 1, 1" offset="12392" size="128" />
			<output>
				<port id="0" precision="FP16">
					<dim>1</dim>
					<dim>64</dim>
					<dim>1</dim>
					<dim>1</dim>
				</port>
			</output>
		</layer>
		<layer id="93" name="__module.model.2.cv2.conv/aten::_convolution/Reshape" type="Convert" version="opset1">
			<data destination_type="f32" />
			<rt_info>
				<attribute name="decompression" version="0" />
			</rt_info>
			<input>
				<port id="0" precision="FP16">
					<dim>1</dim>
					<dim>64</dim>
					<dim>1</dim>
					<dim>1</dim>
				</port>
			</input>
			<output>
				<port id="1" precision="FP32">
					<dim>1</dim>
					<dim>64</dim>
					<dim>1</dim>
					<dim>1</dim>
				</port>
			</output>
		</layer>
		<layer id="94" name="__module.model.2.cv2.conv/aten::_convolution/Add" type="Add" version="opset1">
			<data auto_broadcast="numpy" />
			<input>
				<port id="0" precision="FP32">
					<dim>1</dim>
					<dim>64</dim>
					<dim>160</dim>
					<dim>160</dim>
				</port>
				<port id="1" precision="FP32">
					<dim>1</dim>
					<dim>64</dim>
					<dim>1</dim>
					<dim>1</dim>
				</port>
			</input>
			<output>
				<port id="2" precision="FP32" names="161_1">
					<dim>1</dim>
					<dim>64</dim>
					<dim>160</dim>
					<dim>160</dim>
				</port>
			</output>
		</layer>
		<layer id="95" name="__module.model.23.cv3.2.1.1.act/aten::silu_/Swish_5" type="Swish" version="opset4">
			<input>
				<port id="0" precision="FP32">
					<dim>1</dim>
					<dim>64</dim>
					<dim>160</dim>
					<dim>160</dim>
				</port>
			</input>
			<output>
				<port id="1" precision="FP32" names="161,input.21">
					<dim>1</dim>
					<dim>64</dim>
					<dim>160</dim>
					<dim>160</dim>
				</port>
			</output>
		</layer>
		<layer id="96" name="__module.model.23.cv3.2.1.1.act/aten::silu_/Swish_5/fq_output_0/input_low" type="Const" version="opset1">
			<data element_type="f32" shape="" offset="12520" size="4" />
			<output>
				<port id="0" precision="FP32" />
			</output>
		</layer>
		<layer id="97" name="__module.model.23.cv3.2.1.1.act/aten::silu_/Swish_5/fq_output_0/input_high" type="Const" version="opset1">
			<data element_type="f32" shape="" offset="12524" size="4" />
			<output>
				<port id="0" precision="FP32" />
			</output>
		</layer>
		<layer id="98" name="__module.model.23.cv3.2.1.1.act/aten::silu_/Swish_5/fq_output_0/output_low" type="Const" version="opset1">
			<data element_type="f32" shape="" offset="12520" size="4" />
			<output>
				<port id="0" precision="FP32" />
			</output>
		</layer>
		<layer id="99" name="__module.model.23.cv3.2.1.1.act/aten::silu_/Swish_5/fq_output_0/output_high" type="Const" version="opset1">
			<data element_type="f32" shape="" offset="12524" size="4" />
			<output>
				<port id="0" precision="FP32" />
			</output>
		</layer>
		<layer id="100" name="__module.model.23.cv3.2.1.1.act/aten::silu_/Swish_5/fq_output_0" type="FakeQuantize" version="opset1">
			<data levels="256" auto_broadcast="numpy" />
			<input>
				<port id="0" precision="FP32">
					<dim>1</dim>
					<dim>64</dim>
					<dim>160</dim>
					<dim>160</dim>
				</port>
				<port id="1" precision="FP32" />
				<port id="2" precision="FP32" />
				<port id="3" precision="FP32" />
				<port id="4" precision="FP32" />
			</input>
			<output>
				<port id="5" precision="FP32">
					<dim>1</dim>
					<dim>64</dim>
					<dim>160</dim>
					<dim>160</dim>
				</port>
			</output>
		</layer>
		<layer id="101" name="Constant_542548" type="Const" version="opset1">
			<data element_type="i8" shape="64, 64, 3, 3" offset="12528" size="36864" />
			<output>
				<port id="0" precision="I8">
					<dim>64</dim>
					<dim>64</dim>
					<dim>3</dim>
					<dim>3</dim>
				</port>
			</output>
		</layer>
		<layer id="102" name="Convert_542549" type="Convert" version="opset1">
			<data destination_type="f32" />
			<input>
				<port id="0" precision="I8">
					<dim>64</dim>
					<dim>64</dim>
					<dim>3</dim>
					<dim>3</dim>
				</port>
			</input>
			<output>
				<port id="1" precision="FP32">
					<dim>64</dim>
					<dim>64</dim>
					<dim>3</dim>
					<dim>3</dim>
				</port>
			</output>
		</layer>
		<layer id="103" name="Constant_542550" type="Const" version="opset1">
			<data element_type="f32" shape="64, 1, 1, 1" offset="49392" size="256" />
			<output>
				<port id="0" precision="FP32">
					<dim>64</dim>
					<dim>1</dim>
					<dim>1</dim>
					<dim>1</dim>
				</port>
			</output>
		</layer>
		<layer id="104" name="__module.model.3.conv/aten::_convolution/Convolution/fq_weights_1" type="Multiply" version="opset1">
			<data auto_broadcast="numpy" />
			<input>
				<port id="0" precision="FP32">
					<dim>64</dim>
					<dim>64</dim>
					<dim>3</dim>
					<dim>3</dim>
				</port>
				<port id="1" precision="FP32">
					<dim>64</dim>
					<dim>1</dim>
					<dim>1</dim>
					<dim>1</dim>
				</port>
			</input>
			<output>
				<port id="2" precision="FP32">
					<dim>64</dim>
					<dim>64</dim>
					<dim>3</dim>
					<dim>3</dim>
				</port>
			</output>
		</layer>
		<layer id="105" name="__module.model.3.conv/aten::_convolution/Convolution" type="Convolution" version="opset1">
			<data strides="2, 2" dilations="1, 1" pads_begin="1, 1" pads_end="1, 1" auto_pad="explicit" />
			<input>
				<port id="0" precision="FP32">
					<dim>1</dim>
					<dim>64</dim>
					<dim>160</dim>
					<dim>160</dim>
				</port>
				<port id="1" precision="FP32">
					<dim>64</dim>
					<dim>64</dim>
					<dim>3</dim>
					<dim>3</dim>
				</port>
			</input>
			<output>
				<port id="2" precision="FP32">
					<dim>1</dim>
					<dim>64</dim>
					<dim>80</dim>
					<dim>80</dim>
				</port>
			</output>
		</layer>
		<layer id="106" name="__module.model.3.conv/aten::_convolution/Reshape_compressed" type="Const" version="opset1">
			<data element_type="f16" shape="1, 64, 1, 1" offset="49648" size="128" />
			<output>
				<port id="0" precision="FP16">
					<dim>1</dim>
					<dim>64</dim>
					<dim>1</dim>
					<dim>1</dim>
				</port>
			</output>
		</layer>
		<layer id="107" name="__module.model.3.conv/aten::_convolution/Reshape" type="Convert" version="opset1">
			<data destination_type="f32" />
			<rt_info>
				<attribute name="decompression" version="0" />
			</rt_info>
			<input>
				<port id="0" precision="FP16">
					<dim>1</dim>
					<dim>64</dim>
					<dim>1</dim>
					<dim>1</dim>
				</port>
			</input>
			<output>
				<port id="1" precision="FP32">
					<dim>1</dim>
					<dim>64</dim>
					<dim>1</dim>
					<dim>1</dim>
				</port>
			</output>
		</layer>
		<layer id="108" name="__module.model.3.conv/aten::_convolution/Add" type="Add" version="opset1">
			<data auto_broadcast="numpy" />
			<input>
				<port id="0" precision="FP32">
					<dim>1</dim>
					<dim>64</dim>
					<dim>80</dim>
					<dim>80</dim>
				</port>
				<port id="1" precision="FP32">
					<dim>1</dim>
					<dim>64</dim>
					<dim>1</dim>
					<dim>1</dim>
				</port>
			</input>
			<output>
				<port id="2" precision="FP32" names="175_1">
					<dim>1</dim>
					<dim>64</dim>
					<dim>80</dim>
					<dim>80</dim>
				</port>
			</output>
		</layer>
		<layer id="109" name="__module.model.23.cv3.2.1.1.act/aten::silu_/Swish_6" type="Swish" version="opset4">
			<input>
				<port id="0" precision="FP32">
					<dim>1</dim>
					<dim>64</dim>
					<dim>80</dim>
					<dim>80</dim>
				</port>
			</input>
			<output>
				<port id="1" precision="FP32" names="175,input.25">
					<dim>1</dim>
					<dim>64</dim>
					<dim>80</dim>
					<dim>80</dim>
				</port>
			</output>
		</layer>
		<layer id="110" name="__module.model.23.cv3.2.1.1.act/aten::silu_/Swish_6/fq_output_0/input_low" type="Const" version="opset1">
			<data element_type="f32" shape="" offset="12520" size="4" />
			<output>
				<port id="0" precision="FP32" />
			</output>
		</layer>
		<layer id="111" name="__module.model.23.cv3.2.1.1.act/aten::silu_/Swish_6/fq_output_0/input_high" type="Const" version="opset1">
			<data element_type="f32" shape="" offset="49776" size="4" />
			<output>
				<port id="0" precision="FP32" />
			</output>
		</layer>
		<layer id="112" name="__module.model.23.cv3.2.1.1.act/aten::silu_/Swish_6/fq_output_0/output_low" type="Const" version="opset1">
			<data element_type="f32" shape="" offset="12520" size="4" />
			<output>
				<port id="0" precision="FP32" />
			</output>
		</layer>
		<layer id="113" name="__module.model.23.cv3.2.1.1.act/aten::silu_/Swish_6/fq_output_0/output_high" type="Const" version="opset1">
			<data element_type="f32" shape="" offset="49776" size="4" />
			<output>
				<port id="0" precision="FP32" />
			</output>
		</layer>
		<layer id="114" name="__module.model.23.cv3.2.1.1.act/aten::silu_/Swish_6/fq_output_0" type="FakeQuantize" version="opset1">
			<data levels="256" auto_broadcast="numpy" />
			<input>
				<port id="0" precision="FP32">
					<dim>1</dim>
					<dim>64</dim>
					<dim>80</dim>
					<dim>80</dim>
				</port>
				<port id="1" precision="FP32" />
				<port id="2" precision="FP32" />
				<port id="3" precision="FP32" />
				<port id="4" precision="FP32" />
			</input>
			<output>
				<port id="5" precision="FP32">
					<dim>1</dim>
					<dim>64</dim>
					<dim>80</dim>
					<dim>80</dim>
				</port>
			</output>
		</layer>
		<layer id="115" name="Constant_542553" type="Const" version="opset1">
			<data element_type="i8" shape="64, 64, 1, 1" offset="49780" size="4096" />
			<output>
				<port id="0" precision="I8">
					<dim>64</dim>
					<dim>64</dim>
					<dim>1</dim>
					<dim>1</dim>
				</port>
			</output>
		</layer>
		<layer id="116" name="Convert_542554" type="Convert" version="opset1">
			<data destination_type="f32" />
			<input>
				<port id="0" precision="I8">
					<dim>64</dim>
					<dim>64</dim>
					<dim>1</dim>
					<dim>1</dim>
				</port>
			</input>
			<output>
				<port id="1" precision="FP32">
					<dim>64</dim>
					<dim>64</dim>
					<dim>1</dim>
					<dim>1</dim>
				</port>
			</output>
		</layer>
		<layer id="117" name="Constant_542555" type="Const" version="opset1">
			<data element_type="f32" shape="64, 1, 1, 1" offset="53876" size="256" />
			<output>
				<port id="0" precision="FP32">
					<dim>64</dim>
					<dim>1</dim>
					<dim>1</dim>
					<dim>1</dim>
				</port>
			</output>
		</layer>
		<layer id="118" name="__module.model.4.cv1.conv/aten::_convolution/Convolution/fq_weights_1" type="Multiply" version="opset1">
			<data auto_broadcast="numpy" />
			<input>
				<port id="0" precision="FP32">
					<dim>64</dim>
					<dim>64</dim>
					<dim>1</dim>
					<dim>1</dim>
				</port>
				<port id="1" precision="FP32">
					<dim>64</dim>
					<dim>1</dim>
					<dim>1</dim>
					<dim>1</dim>
				</port>
			</input>
			<output>
				<port id="2" precision="FP32">
					<dim>64</dim>
					<dim>64</dim>
					<dim>1</dim>
					<dim>1</dim>
				</port>
			</output>
		</layer>
		<layer id="119" name="__module.model.4.cv1.conv/aten::_convolution/Convolution" type="Convolution" version="opset1">
			<data strides="1, 1" dilations="1, 1" pads_begin="0, 0" pads_end="0, 0" auto_pad="explicit" />
			<input>
				<port id="0" precision="FP32">
					<dim>1</dim>
					<dim>64</dim>
					<dim>80</dim>
					<dim>80</dim>
				</port>
				<port id="1" precision="FP32">
					<dim>64</dim>
					<dim>64</dim>
					<dim>1</dim>
					<dim>1</dim>
				</port>
			</input>
			<output>
				<port id="2" precision="FP32">
					<dim>1</dim>
					<dim>64</dim>
					<dim>80</dim>
					<dim>80</dim>
				</port>
			</output>
		</layer>
		<layer id="120" name="__module.model.4.cv1.conv/aten::_convolution/Reshape_compressed" type="Const" version="opset1">
			<data element_type="f16" shape="1, 64, 1, 1" offset="54132" size="128" />
			<output>
				<port id="0" precision="FP16">
					<dim>1</dim>
					<dim>64</dim>
					<dim>1</dim>
					<dim>1</dim>
				</port>
			</output>
		</layer>
		<layer id="121" name="__module.model.4.cv1.conv/aten::_convolution/Reshape" type="Convert" version="opset1">
			<data destination_type="f32" />
			<rt_info>
				<attribute name="decompression" version="0" />
			</rt_info>
			<input>
				<port id="0" precision="FP16">
					<dim>1</dim>
					<dim>64</dim>
					<dim>1</dim>
					<dim>1</dim>
				</port>
			</input>
			<output>
				<port id="1" precision="FP32">
					<dim>1</dim>
					<dim>64</dim>
					<dim>1</dim>
					<dim>1</dim>
				</port>
			</output>
		</layer>
		<layer id="122" name="__module.model.4.cv1.conv/aten::_convolution/Add" type="Add" version="opset1">
			<data auto_broadcast="numpy" />
			<input>
				<port id="0" precision="FP32">
					<dim>1</dim>
					<dim>64</dim>
					<dim>80</dim>
					<dim>80</dim>
				</port>
				<port id="1" precision="FP32">
					<dim>1</dim>
					<dim>64</dim>
					<dim>1</dim>
					<dim>1</dim>
				</port>
			</input>
			<output>
				<port id="2" precision="FP32" names="193_1">
					<dim>1</dim>
					<dim>64</dim>
					<dim>80</dim>
					<dim>80</dim>
				</port>
			</output>
		</layer>
		<layer id="123" name="__module.model.23.cv3.2.1.1.act/aten::silu_/Swish_7" type="Swish" version="opset4">
			<input>
				<port id="0" precision="FP32">
					<dim>1</dim>
					<dim>64</dim>
					<dim>80</dim>
					<dim>80</dim>
				</port>
			</input>
			<output>
				<port id="1" precision="FP32" names="193,input.29">
					<dim>1</dim>
					<dim>64</dim>
					<dim>80</dim>
					<dim>80</dim>
				</port>
			</output>
		</layer>
		<layer id="124" name="__module.model.23.cv3.2.1.1.act/aten::silu_/Swish_7/fq_output_0/input_low" type="Const" version="opset1">
			<data element_type="f32" shape="" offset="54260" size="4" />
			<output>
				<port id="0" precision="FP32" />
			</output>
		</layer>
		<layer id="125" name="__module.model.23.cv3.2.1.1.act/aten::silu_/Swish_7/fq_output_0/input_high" type="Const" version="opset1">
			<data element_type="f32" shape="" offset="54264" size="4" />
			<output>
				<port id="0" precision="FP32" />
			</output>
		</layer>
		<layer id="126" name="__module.model.23.cv3.2.1.1.act/aten::silu_/Swish_7/fq_output_0/output_low" type="Const" version="opset1">
			<data element_type="f32" shape="" offset="54260" size="4" />
			<output>
				<port id="0" precision="FP32" />
			</output>
		</layer>
		<layer id="127" name="__module.model.23.cv3.2.1.1.act/aten::silu_/Swish_7/fq_output_0/output_high" type="Const" version="opset1">
			<data element_type="f32" shape="" offset="54264" size="4" />
			<output>
				<port id="0" precision="FP32" />
			</output>
		</layer>
		<layer id="128" name="__module.model.23.cv3.2.1.1.act/aten::silu_/Swish_7/fq_output_0" type="FakeQuantize" version="opset1">
			<data levels="256" auto_broadcast="numpy" />
			<input>
				<port id="0" precision="FP32">
					<dim>1</dim>
					<dim>64</dim>
					<dim>80</dim>
					<dim>80</dim>
				</port>
				<port id="1" precision="FP32" />
				<port id="2" precision="FP32" />
				<port id="3" precision="FP32" />
				<port id="4" precision="FP32" />
			</input>
			<output>
				<port id="5" precision="FP32">
					<dim>1</dim>
					<dim>64</dim>
					<dim>80</dim>
					<dim>80</dim>
				</port>
			</output>
		</layer>
		<layer id="129" name="181" type="Const" version="opset1">
			<data element_type="i64" shape="" offset="6576" size="8" />
			<output>
				<port id="0" precision="I64" names="181" />
			</output>
		</layer>
		<layer id="130" name="Constant_473" type="Const" version="opset1">
			<data element_type="i64" shape="2" offset="54268" size="16" />
			<output>
				<port id="0" precision="I64" names="195">
					<dim>2</dim>
				</port>
			</output>
		</layer>
		<layer id="131" name="__module.model.4/prim::ListUnpack" type="VariadicSplit" version="opset1">
			<input>
				<port id="0" precision="FP32">
					<dim>1</dim>
					<dim>64</dim>
					<dim>80</dim>
					<dim>80</dim>
				</port>
				<port id="1" precision="I64" />
				<port id="2" precision="I64">
					<dim>2</dim>
				</port>
			</input>
			<output>
				<port id="3" precision="FP32" names="197">
					<dim>1</dim>
					<dim>32</dim>
					<dim>80</dim>
					<dim>80</dim>
				</port>
				<port id="4" precision="FP32" names="198,input.31">
					<dim>1</dim>
					<dim>32</dim>
					<dim>80</dim>
					<dim>80</dim>
				</port>
			</output>
		</layer>
		<layer id="132" name="Constant_542558" type="Const" version="opset1">
			<data element_type="i8" shape="16, 32, 3, 3" offset="54284" size="4608" />
			<output>
				<port id="0" precision="I8">
					<dim>16</dim>
					<dim>32</dim>
					<dim>3</dim>
					<dim>3</dim>
				</port>
			</output>
		</layer>
		<layer id="133" name="Convert_542559" type="Convert" version="opset1">
			<data destination_type="f32" />
			<input>
				<port id="0" precision="I8">
					<dim>16</dim>
					<dim>32</dim>
					<dim>3</dim>
					<dim>3</dim>
				</port>
			</input>
			<output>
				<port id="1" precision="FP32">
					<dim>16</dim>
					<dim>32</dim>
					<dim>3</dim>
					<dim>3</dim>
				</port>
			</output>
		</layer>
		<layer id="134" name="Constant_542560" type="Const" version="opset1">
			<data element_type="f32" shape="16, 1, 1, 1" offset="58892" size="64" />
			<output>
				<port id="0" precision="FP32">
					<dim>16</dim>
					<dim>1</dim>
					<dim>1</dim>
					<dim>1</dim>
				</port>
			</output>
		</layer>
		<layer id="135" name="__module.model.4.m.0.cv1.conv/aten::_convolution/Convolution/fq_weights_1" type="Multiply" version="opset1">
			<data auto_broadcast="numpy" />
			<input>
				<port id="0" precision="FP32">
					<dim>16</dim>
					<dim>32</dim>
					<dim>3</dim>
					<dim>3</dim>
				</port>
				<port id="1" precision="FP32">
					<dim>16</dim>
					<dim>1</dim>
					<dim>1</dim>
					<dim>1</dim>
				</port>
			</input>
			<output>
				<port id="2" precision="FP32">
					<dim>16</dim>
					<dim>32</dim>
					<dim>3</dim>
					<dim>3</dim>
				</port>
			</output>
		</layer>
		<layer id="136" name="__module.model.4.m.0.cv1.conv/aten::_convolution/Convolution" type="Convolution" version="opset1">
			<data strides="1, 1" dilations="1, 1" pads_begin="1, 1" pads_end="1, 1" auto_pad="explicit" />
			<input>
				<port id="0" precision="FP32">
					<dim>1</dim>
					<dim>32</dim>
					<dim>80</dim>
					<dim>80</dim>
				</port>
				<port id="1" precision="FP32">
					<dim>16</dim>
					<dim>32</dim>
					<dim>3</dim>
					<dim>3</dim>
				</port>
			</input>
			<output>
				<port id="2" precision="FP32">
					<dim>1</dim>
					<dim>16</dim>
					<dim>80</dim>
					<dim>80</dim>
				</port>
			</output>
		</layer>
		<layer id="137" name="__module.model.4.m.0.cv1.conv/aten::_convolution/Reshape_compressed" type="Const" version="opset1">
			<data element_type="f16" shape="1, 16, 1, 1" offset="58956" size="32" />
			<output>
				<port id="0" precision="FP16">
					<dim>1</dim>
					<dim>16</dim>
					<dim>1</dim>
					<dim>1</dim>
				</port>
			</output>
		</layer>
		<layer id="138" name="__module.model.4.m.0.cv1.conv/aten::_convolution/Reshape" type="Convert" version="opset1">
			<data destination_type="f32" />
			<rt_info>
				<attribute name="decompression" version="0" />
			</rt_info>
			<input>
				<port id="0" precision="FP16">
					<dim>1</dim>
					<dim>16</dim>
					<dim>1</dim>
					<dim>1</dim>
				</port>
			</input>
			<output>
				<port id="1" precision="FP32">
					<dim>1</dim>
					<dim>16</dim>
					<dim>1</dim>
					<dim>1</dim>
				</port>
			</output>
		</layer>
		<layer id="139" name="__module.model.4.m.0.cv1.conv/aten::_convolution/Add" type="Add" version="opset1">
			<data auto_broadcast="numpy" />
			<input>
				<port id="0" precision="FP32">
					<dim>1</dim>
					<dim>16</dim>
					<dim>80</dim>
					<dim>80</dim>
				</port>
				<port id="1" precision="FP32">
					<dim>1</dim>
					<dim>16</dim>
					<dim>1</dim>
					<dim>1</dim>
				</port>
			</input>
			<output>
				<port id="2" precision="FP32" names="208_1">
					<dim>1</dim>
					<dim>16</dim>
					<dim>80</dim>
					<dim>80</dim>
				</port>
			</output>
		</layer>
		<layer id="140" name="__module.model.23.cv3.2.1.1.act/aten::silu_/Swish_8" type="Swish" version="opset4">
			<input>
				<port id="0" precision="FP32">
					<dim>1</dim>
					<dim>16</dim>
					<dim>80</dim>
					<dim>80</dim>
				</port>
			</input>
			<output>
				<port id="1" precision="FP32" names="208,input.33">
					<dim>1</dim>
					<dim>16</dim>
					<dim>80</dim>
					<dim>80</dim>
				</port>
			</output>
		</layer>
		<layer id="141" name="__module.model.23.cv3.2.1.1.act/aten::silu_/Swish_8/fq_output_0/input_low" type="Const" version="opset1">
			<data element_type="f32" shape="" offset="12520" size="4" />
			<output>
				<port id="0" precision="FP32" />
			</output>
		</layer>
		<layer id="142" name="__module.model.23.cv3.2.1.1.act/aten::silu_/Swish_8/fq_output_0/input_high" type="Const" version="opset1">
			<data element_type="f32" shape="" offset="58988" size="4" />
			<output>
				<port id="0" precision="FP32" />
			</output>
		</layer>
		<layer id="143" name="__module.model.23.cv3.2.1.1.act/aten::silu_/Swish_8/fq_output_0/output_low" type="Const" version="opset1">
			<data element_type="f32" shape="" offset="12520" size="4" />
			<output>
				<port id="0" precision="FP32" />
			</output>
		</layer>
		<layer id="144" name="__module.model.23.cv3.2.1.1.act/aten::silu_/Swish_8/fq_output_0/output_high" type="Const" version="opset1">
			<data element_type="f32" shape="" offset="58988" size="4" />
			<output>
				<port id="0" precision="FP32" />
			</output>
		</layer>
		<layer id="145" name="__module.model.23.cv3.2.1.1.act/aten::silu_/Swish_8/fq_output_0" type="FakeQuantize" version="opset1">
			<data levels="256" auto_broadcast="numpy" />
			<input>
				<port id="0" precision="FP32">
					<dim>1</dim>
					<dim>16</dim>
					<dim>80</dim>
					<dim>80</dim>
				</port>
				<port id="1" precision="FP32" />
				<port id="2" precision="FP32" />
				<port id="3" precision="FP32" />
				<port id="4" precision="FP32" />
			</input>
			<output>
				<port id="5" precision="FP32">
					<dim>1</dim>
					<dim>16</dim>
					<dim>80</dim>
					<dim>80</dim>
				</port>
			</output>
		</layer>
		<layer id="146" name="Constant_542563" type="Const" version="opset1">
			<data element_type="i8" shape="32, 16, 3, 3" offset="58992" size="4608" />
			<output>
				<port id="0" precision="I8">
					<dim>32</dim>
					<dim>16</dim>
					<dim>3</dim>
					<dim>3</dim>
				</port>
			</output>
		</layer>
		<layer id="147" name="Convert_542564" type="Convert" version="opset1">
			<data destination_type="f32" />
			<input>
				<port id="0" precision="I8">
					<dim>32</dim>
					<dim>16</dim>
					<dim>3</dim>
					<dim>3</dim>
				</port>
			</input>
			<output>
				<port id="1" precision="FP32">
					<dim>32</dim>
					<dim>16</dim>
					<dim>3</dim>
					<dim>3</dim>
				</port>
			</output>
		</layer>
		<layer id="148" name="Constant_542565" type="Const" version="opset1">
			<data element_type="f32" shape="32, 1, 1, 1" offset="63600" size="128" />
			<output>
				<port id="0" precision="FP32">
					<dim>32</dim>
					<dim>1</dim>
					<dim>1</dim>
					<dim>1</dim>
				</port>
			</output>
		</layer>
		<layer id="149" name="__module.model.4.m.0.cv2.conv/aten::_convolution/Convolution/fq_weights_1" type="Multiply" version="opset1">
			<data auto_broadcast="numpy" />
			<input>
				<port id="0" precision="FP32">
					<dim>32</dim>
					<dim>16</dim>
					<dim>3</dim>
					<dim>3</dim>
				</port>
				<port id="1" precision="FP32">
					<dim>32</dim>
					<dim>1</dim>
					<dim>1</dim>
					<dim>1</dim>
				</port>
			</input>
			<output>
				<port id="2" precision="FP32">
					<dim>32</dim>
					<dim>16</dim>
					<dim>3</dim>
					<dim>3</dim>
				</port>
			</output>
		</layer>
		<layer id="150" name="__module.model.4.m.0.cv2.conv/aten::_convolution/Convolution" type="Convolution" version="opset1">
			<data strides="1, 1" dilations="1, 1" pads_begin="1, 1" pads_end="1, 1" auto_pad="explicit" />
			<input>
				<port id="0" precision="FP32">
					<dim>1</dim>
					<dim>16</dim>
					<dim>80</dim>
					<dim>80</dim>
				</port>
				<port id="1" precision="FP32">
					<dim>32</dim>
					<dim>16</dim>
					<dim>3</dim>
					<dim>3</dim>
				</port>
			</input>
			<output>
				<port id="2" precision="FP32">
					<dim>1</dim>
					<dim>32</dim>
					<dim>80</dim>
					<dim>80</dim>
				</port>
			</output>
		</layer>
		<layer id="151" name="__module.model.4.m.0.cv2.conv/aten::_convolution/Reshape_compressed" type="Const" version="opset1">
			<data element_type="f16" shape="1, 32, 1, 1" offset="63728" size="64" />
			<output>
				<port id="0" precision="FP16">
					<dim>1</dim>
					<dim>32</dim>
					<dim>1</dim>
					<dim>1</dim>
				</port>
			</output>
		</layer>
		<layer id="152" name="__module.model.4.m.0.cv2.conv/aten::_convolution/Reshape" type="Convert" version="opset1">
			<data destination_type="f32" />
			<rt_info>
				<attribute name="decompression" version="0" />
			</rt_info>
			<input>
				<port id="0" precision="FP16">
					<dim>1</dim>
					<dim>32</dim>
					<dim>1</dim>
					<dim>1</dim>
				</port>
			</input>
			<output>
				<port id="1" precision="FP32">
					<dim>1</dim>
					<dim>32</dim>
					<dim>1</dim>
					<dim>1</dim>
				</port>
			</output>
		</layer>
		<layer id="153" name="__module.model.4.m.0.cv2.conv/aten::_convolution/Add" type="Add" version="opset1">
			<data auto_broadcast="numpy" />
			<input>
				<port id="0" precision="FP32">
					<dim>1</dim>
					<dim>32</dim>
					<dim>80</dim>
					<dim>80</dim>
				</port>
				<port id="1" precision="FP32">
					<dim>1</dim>
					<dim>32</dim>
					<dim>1</dim>
					<dim>1</dim>
				</port>
			</input>
			<output>
				<port id="2" precision="FP32" names="217_1">
					<dim>1</dim>
					<dim>32</dim>
					<dim>80</dim>
					<dim>80</dim>
				</port>
			</output>
		</layer>
		<layer id="154" name="__module.model.23.cv3.2.1.1.act/aten::silu_/Swish_9" type="Swish" version="opset4">
			<input>
				<port id="0" precision="FP32">
					<dim>1</dim>
					<dim>32</dim>
					<dim>80</dim>
					<dim>80</dim>
				</port>
			</input>
			<output>
				<port id="1" precision="FP32" names="217,input.37">
					<dim>1</dim>
					<dim>32</dim>
					<dim>80</dim>
					<dim>80</dim>
				</port>
			</output>
		</layer>
		<layer id="155" name="__module.model.23.cv3.2.1.1.act/aten::silu_/Swish_9/fq_output_0/input_low" type="Const" version="opset1">
			<data element_type="f32" shape="" offset="12520" size="4" />
			<output>
				<port id="0" precision="FP32" />
			</output>
		</layer>
		<layer id="156" name="__module.model.23.cv3.2.1.1.act/aten::silu_/Swish_9/fq_output_0/input_high" type="Const" version="opset1">
			<data element_type="f32" shape="" offset="63792" size="4" />
			<output>
				<port id="0" precision="FP32" />
			</output>
		</layer>
		<layer id="157" name="__module.model.23.cv3.2.1.1.act/aten::silu_/Swish_9/fq_output_0/output_low" type="Const" version="opset1">
			<data element_type="f32" shape="" offset="12520" size="4" />
			<output>
				<port id="0" precision="FP32" />
			</output>
		</layer>
		<layer id="158" name="__module.model.23.cv3.2.1.1.act/aten::silu_/Swish_9/fq_output_0/output_high" type="Const" version="opset1">
			<data element_type="f32" shape="" offset="63792" size="4" />
			<output>
				<port id="0" precision="FP32" />
			</output>
		</layer>
		<layer id="159" name="__module.model.23.cv3.2.1.1.act/aten::silu_/Swish_9/fq_output_0" type="FakeQuantize" version="opset1">
			<data levels="256" auto_broadcast="numpy" />
			<input>
				<port id="0" precision="FP32">
					<dim>1</dim>
					<dim>32</dim>
					<dim>80</dim>
					<dim>80</dim>
				</port>
				<port id="1" precision="FP32" />
				<port id="2" precision="FP32" />
				<port id="3" precision="FP32" />
				<port id="4" precision="FP32" />
			</input>
			<output>
				<port id="5" precision="FP32">
					<dim>1</dim>
					<dim>32</dim>
					<dim>80</dim>
					<dim>80</dim>
				</port>
			</output>
		</layer>
		<layer id="160" name="__module.model.4.m.0/aten::add/Add" type="Add" version="opset1">
			<data auto_broadcast="numpy" />
			<input>
				<port id="0" precision="FP32">
					<dim>1</dim>
					<dim>32</dim>
					<dim>80</dim>
					<dim>80</dim>
				</port>
				<port id="1" precision="FP32">
					<dim>1</dim>
					<dim>32</dim>
					<dim>80</dim>
					<dim>80</dim>
				</port>
			</input>
			<output>
				<port id="2" precision="FP32" names="219">
					<dim>1</dim>
					<dim>32</dim>
					<dim>80</dim>
					<dim>80</dim>
				</port>
			</output>
		</layer>
		<layer id="161" name="__module.model.4.m.0/aten::add/Add/fq_output_0/input_low" type="Const" version="opset1">
			<data element_type="f32" shape="" offset="54260" size="4" />
			<output>
				<port id="0" precision="FP32" />
			</output>
		</layer>
		<layer id="162" name="__module.model.4.m.0/aten::add/Add/fq_output_0/input_high" type="Const" version="opset1">
			<data element_type="f32" shape="" offset="54264" size="4" />
			<output>
				<port id="0" precision="FP32" />
			</output>
		</layer>
		<layer id="163" name="__module.model.4.m.0/aten::add/Add/fq_output_0/output_low" type="Const" version="opset1">
			<data element_type="f32" shape="" offset="54260" size="4" />
			<output>
				<port id="0" precision="FP32" />
			</output>
		</layer>
		<layer id="164" name="__module.model.4.m.0/aten::add/Add/fq_output_0/output_high" type="Const" version="opset1">
			<data element_type="f32" shape="" offset="54264" size="4" />
			<output>
				<port id="0" precision="FP32" />
			</output>
		</layer>
		<layer id="165" name="__module.model.4.m.0/aten::add/Add/fq_output_0" type="FakeQuantize" version="opset1">
			<data levels="256" auto_broadcast="numpy" />
			<input>
				<port id="0" precision="FP32">
					<dim>1</dim>
					<dim>32</dim>
					<dim>80</dim>
					<dim>80</dim>
				</port>
				<port id="1" precision="FP32" />
				<port id="2" precision="FP32" />
				<port id="3" precision="FP32" />
				<port id="4" precision="FP32" />
			</input>
			<output>
				<port id="5" precision="FP32">
					<dim>1</dim>
					<dim>32</dim>
					<dim>80</dim>
					<dim>80</dim>
				</port>
			</output>
		</layer>
		<layer id="166" name="__module.model.4/aten::cat/Concat" type="Concat" version="opset1">
			<data axis="1" />
			<input>
				<port id="0" precision="FP32">
					<dim>1</dim>
					<dim>32</dim>
					<dim>80</dim>
					<dim>80</dim>
				</port>
				<port id="1" precision="FP32">
					<dim>1</dim>
					<dim>32</dim>
					<dim>80</dim>
					<dim>80</dim>
				</port>
				<port id="2" precision="FP32">
					<dim>1</dim>
					<dim>32</dim>
					<dim>80</dim>
					<dim>80</dim>
				</port>
			</input>
			<output>
				<port id="3" precision="FP32" names="221,input.39">
					<dim>1</dim>
					<dim>96</dim>
					<dim>80</dim>
					<dim>80</dim>
				</port>
			</output>
		</layer>
		<layer id="167" name="Constant_542568" type="Const" version="opset1">
			<data element_type="i8" shape="128, 96, 1, 1" offset="63796" size="12288" />
			<output>
				<port id="0" precision="I8">
					<dim>128</dim>
					<dim>96</dim>
					<dim>1</dim>
					<dim>1</dim>
				</port>
			</output>
		</layer>
		<layer id="168" name="Convert_542569" type="Convert" version="opset1">
			<data destination_type="f32" />
			<input>
				<port id="0" precision="I8">
					<dim>128</dim>
					<dim>96</dim>
					<dim>1</dim>
					<dim>1</dim>
				</port>
			</input>
			<output>
				<port id="1" precision="FP32">
					<dim>128</dim>
					<dim>96</dim>
					<dim>1</dim>
					<dim>1</dim>
				</port>
			</output>
		</layer>
		<layer id="169" name="Constant_542570" type="Const" version="opset1">
			<data element_type="f32" shape="128, 1, 1, 1" offset="76084" size="512" />
			<output>
				<port id="0" precision="FP32">
					<dim>128</dim>
					<dim>1</dim>
					<dim>1</dim>
					<dim>1</dim>
				</port>
			</output>
		</layer>
		<layer id="170" name="__module.model.4.cv2.conv/aten::_convolution/Convolution/fq_weights_1" type="Multiply" version="opset1">
			<data auto_broadcast="numpy" />
			<input>
				<port id="0" precision="FP32">
					<dim>128</dim>
					<dim>96</dim>
					<dim>1</dim>
					<dim>1</dim>
				</port>
				<port id="1" precision="FP32">
					<dim>128</dim>
					<dim>1</dim>
					<dim>1</dim>
					<dim>1</dim>
				</port>
			</input>
			<output>
				<port id="2" precision="FP32">
					<dim>128</dim>
					<dim>96</dim>
					<dim>1</dim>
					<dim>1</dim>
				</port>
			</output>
		</layer>
		<layer id="171" name="__module.model.4.cv2.conv/aten::_convolution/Convolution" type="Convolution" version="opset1">
			<data strides="1, 1" dilations="1, 1" pads_begin="0, 0" pads_end="0, 0" auto_pad="explicit" />
			<input>
				<port id="0" precision="FP32">
					<dim>1</dim>
					<dim>96</dim>
					<dim>80</dim>
					<dim>80</dim>
				</port>
				<port id="1" precision="FP32">
					<dim>128</dim>
					<dim>96</dim>
					<dim>1</dim>
					<dim>1</dim>
				</port>
			</input>
			<output>
				<port id="2" precision="FP32">
					<dim>1</dim>
					<dim>128</dim>
					<dim>80</dim>
					<dim>80</dim>
				</port>
			</output>
		</layer>
		<layer id="172" name="__module.model.4.cv2.conv/aten::_convolution/Reshape_compressed" type="Const" version="opset1">
			<data element_type="f16" shape="1, 128, 1, 1" offset="76596" size="256" />
			<output>
				<port id="0" precision="FP16">
					<dim>1</dim>
					<dim>128</dim>
					<dim>1</dim>
					<dim>1</dim>
				</port>
			</output>
		</layer>
		<layer id="173" name="__module.model.4.cv2.conv/aten::_convolution/Reshape" type="Convert" version="opset1">
			<data destination_type="f32" />
			<rt_info>
				<attribute name="decompression" version="0" />
			</rt_info>
			<input>
				<port id="0" precision="FP16">
					<dim>1</dim>
					<dim>128</dim>
					<dim>1</dim>
					<dim>1</dim>
				</port>
			</input>
			<output>
				<port id="1" precision="FP32">
					<dim>1</dim>
					<dim>128</dim>
					<dim>1</dim>
					<dim>1</dim>
				</port>
			</output>
		</layer>
		<layer id="174" name="__module.model.4.cv2.conv/aten::_convolution/Add" type="Add" version="opset1">
			<data auto_broadcast="numpy" />
			<input>
				<port id="0" precision="FP32">
					<dim>1</dim>
					<dim>128</dim>
					<dim>80</dim>
					<dim>80</dim>
				</port>
				<port id="1" precision="FP32">
					<dim>1</dim>
					<dim>128</dim>
					<dim>1</dim>
					<dim>1</dim>
				</port>
			</input>
			<output>
				<port id="2" precision="FP32" names="229_1">
					<dim>1</dim>
					<dim>128</dim>
					<dim>80</dim>
					<dim>80</dim>
				</port>
			</output>
		</layer>
		<layer id="175" name="__module.model.23.cv3.2.1.1.act/aten::silu_/Swish_10" type="Swish" version="opset4">
			<input>
				<port id="0" precision="FP32">
					<dim>1</dim>
					<dim>128</dim>
					<dim>80</dim>
					<dim>80</dim>
				</port>
			</input>
			<output>
				<port id="1" precision="FP32" names="229,input.41">
					<dim>1</dim>
					<dim>128</dim>
					<dim>80</dim>
					<dim>80</dim>
				</port>
			</output>
		</layer>
		<layer id="176" name="__module.model.23.cv3.2.1.1.act/aten::silu_/Swish_10/fq_output_0/input_low" type="Const" version="opset1">
			<data element_type="f32" shape="" offset="12520" size="4" />
			<output>
				<port id="0" precision="FP32" />
			</output>
		</layer>
		<layer id="177" name="__module.model.23.cv3.2.1.1.act/aten::silu_/Swish_10/fq_output_0/input_high" type="Const" version="opset1">
			<data element_type="f32" shape="" offset="76852" size="4" />
			<output>
				<port id="0" precision="FP32" />
			</output>
		</layer>
		<layer id="178" name="__module.model.23.cv3.2.1.1.act/aten::silu_/Swish_10/fq_output_0/output_low" type="Const" version="opset1">
			<data element_type="f32" shape="" offset="12520" size="4" />
			<output>
				<port id="0" precision="FP32" />
			</output>
		</layer>
		<layer id="179" name="__module.model.23.cv3.2.1.1.act/aten::silu_/Swish_10/fq_output_0/output_high" type="Const" version="opset1">
			<data element_type="f32" shape="" offset="76852" size="4" />
			<output>
				<port id="0" precision="FP32" />
			</output>
		</layer>
		<layer id="180" name="__module.model.23.cv3.2.1.1.act/aten::silu_/Swish_10/fq_output_0" type="FakeQuantize" version="opset1">
			<data levels="256" auto_broadcast="numpy" />
			<input>
				<port id="0" precision="FP32">
					<dim>1</dim>
					<dim>128</dim>
					<dim>80</dim>
					<dim>80</dim>
				</port>
				<port id="1" precision="FP32" />
				<port id="2" precision="FP32" />
				<port id="3" precision="FP32" />
				<port id="4" precision="FP32" />
			</input>
			<output>
				<port id="5" precision="FP32">
					<dim>1</dim>
					<dim>128</dim>
					<dim>80</dim>
					<dim>80</dim>
				</port>
			</output>
		</layer>
		<layer id="181" name="Constant_542573" type="Const" version="opset1">
			<data element_type="i8" shape="128, 128, 3, 3" offset="76856" size="147456" />
			<output>
				<port id="0" precision="I8">
					<dim>128</dim>
					<dim>128</dim>
					<dim>3</dim>
					<dim>3</dim>
				</port>
			</output>
		</layer>
		<layer id="182" name="Convert_542574" type="Convert" version="opset1">
			<data destination_type="f32" />
			<input>
				<port id="0" precision="I8">
					<dim>128</dim>
					<dim>128</dim>
					<dim>3</dim>
					<dim>3</dim>
				</port>
			</input>
			<output>
				<port id="1" precision="FP32">
					<dim>128</dim>
					<dim>128</dim>
					<dim>3</dim>
					<dim>3</dim>
				</port>
			</output>
		</layer>
		<layer id="183" name="Constant_542575" type="Const" version="opset1">
			<data element_type="f32" shape="128, 1, 1, 1" offset="224312" size="512" />
			<output>
				<port id="0" precision="FP32">
					<dim>128</dim>
					<dim>1</dim>
					<dim>1</dim>
					<dim>1</dim>
				</port>
			</output>
		</layer>
		<layer id="184" name="__module.model.5.conv/aten::_convolution/Convolution/fq_weights_1" type="Multiply" version="opset1">
			<data auto_broadcast="numpy" />
			<input>
				<port id="0" precision="FP32">
					<dim>128</dim>
					<dim>128</dim>
					<dim>3</dim>
					<dim>3</dim>
				</port>
				<port id="1" precision="FP32">
					<dim>128</dim>
					<dim>1</dim>
					<dim>1</dim>
					<dim>1</dim>
				</port>
			</input>
			<output>
				<port id="2" precision="FP32">
					<dim>128</dim>
					<dim>128</dim>
					<dim>3</dim>
					<dim>3</dim>
				</port>
			</output>
		</layer>
		<layer id="185" name="__module.model.5.conv/aten::_convolution/Convolution" type="Convolution" version="opset1">
			<data strides="2, 2" dilations="1, 1" pads_begin="1, 1" pads_end="1, 1" auto_pad="explicit" />
			<input>
				<port id="0" precision="FP32">
					<dim>1</dim>
					<dim>128</dim>
					<dim>80</dim>
					<dim>80</dim>
				</port>
				<port id="1" precision="FP32">
					<dim>128</dim>
					<dim>128</dim>
					<dim>3</dim>
					<dim>3</dim>
				</port>
			</input>
			<output>
				<port id="2" precision="FP32">
					<dim>1</dim>
					<dim>128</dim>
					<dim>40</dim>
					<dim>40</dim>
				</port>
			</output>
		</layer>
		<layer id="186" name="__module.model.5.conv/aten::_convolution/Reshape_compressed" type="Const" version="opset1">
			<data element_type="f16" shape="1, 128, 1, 1" offset="224824" size="256" />
			<output>
				<port id="0" precision="FP16">
					<dim>1</dim>
					<dim>128</dim>
					<dim>1</dim>
					<dim>1</dim>
				</port>
			</output>
		</layer>
		<layer id="187" name="__module.model.5.conv/aten::_convolution/Reshape" type="Convert" version="opset1">
			<data destination_type="f32" />
			<rt_info>
				<attribute name="decompression" version="0" />
			</rt_info>
			<input>
				<port id="0" precision="FP16">
					<dim>1</dim>
					<dim>128</dim>
					<dim>1</dim>
					<dim>1</dim>
				</port>
			</input>
			<output>
				<port id="1" precision="FP32">
					<dim>1</dim>
					<dim>128</dim>
					<dim>1</dim>
					<dim>1</dim>
				</port>
			</output>
		</layer>
		<layer id="188" name="__module.model.5.conv/aten::_convolution/Add" type="Add" version="opset1">
			<data auto_broadcast="numpy" />
			<input>
				<port id="0" precision="FP32">
					<dim>1</dim>
					<dim>128</dim>
					<dim>40</dim>
					<dim>40</dim>
				</port>
				<port id="1" precision="FP32">
					<dim>1</dim>
					<dim>128</dim>
					<dim>1</dim>
					<dim>1</dim>
				</port>
			</input>
			<output>
				<port id="2" precision="FP32" names="243_1">
					<dim>1</dim>
					<dim>128</dim>
					<dim>40</dim>
					<dim>40</dim>
				</port>
			</output>
		</layer>
		<layer id="189" name="__module.model.23.cv3.2.1.1.act/aten::silu_/Swish_11" type="Swish" version="opset4">
			<input>
				<port id="0" precision="FP32">
					<dim>1</dim>
					<dim>128</dim>
					<dim>40</dim>
					<dim>40</dim>
				</port>
			</input>
			<output>
				<port id="1" precision="FP32" names="243,input.45">
					<dim>1</dim>
					<dim>128</dim>
					<dim>40</dim>
					<dim>40</dim>
				</port>
			</output>
		</layer>
		<layer id="190" name="__module.model.23.cv3.2.1.1.act/aten::silu_/Swish_11/fq_output_0/input_low" type="Const" version="opset1">
			<data element_type="f32" shape="" offset="12520" size="4" />
			<output>
				<port id="0" precision="FP32" />
			</output>
		</layer>
		<layer id="191" name="__module.model.23.cv3.2.1.1.act/aten::silu_/Swish_11/fq_output_0/input_high" type="Const" version="opset1">
			<data element_type="f32" shape="" offset="76852" size="4" />
			<output>
				<port id="0" precision="FP32" />
			</output>
		</layer>
		<layer id="192" name="__module.model.23.cv3.2.1.1.act/aten::silu_/Swish_11/fq_output_0/output_low" type="Const" version="opset1">
			<data element_type="f32" shape="" offset="12520" size="4" />
			<output>
				<port id="0" precision="FP32" />
			</output>
		</layer>
		<layer id="193" name="__module.model.23.cv3.2.1.1.act/aten::silu_/Swish_11/fq_output_0/output_high" type="Const" version="opset1">
			<data element_type="f32" shape="" offset="76852" size="4" />
			<output>
				<port id="0" precision="FP32" />
			</output>
		</layer>
		<layer id="194" name="__module.model.23.cv3.2.1.1.act/aten::silu_/Swish_11/fq_output_0" type="FakeQuantize" version="opset1">
			<data levels="256" auto_broadcast="numpy" />
			<input>
				<port id="0" precision="FP32">
					<dim>1</dim>
					<dim>128</dim>
					<dim>40</dim>
					<dim>40</dim>
				</port>
				<port id="1" precision="FP32" />
				<port id="2" precision="FP32" />
				<port id="3" precision="FP32" />
				<port id="4" precision="FP32" />
			</input>
			<output>
				<port id="5" precision="FP32">
					<dim>1</dim>
					<dim>128</dim>
					<dim>40</dim>
					<dim>40</dim>
				</port>
			</output>
		</layer>
		<layer id="195" name="Constant_542578" type="Const" version="opset1">
			<data element_type="i8" shape="128, 128, 1, 1" offset="225080" size="16384" />
			<output>
				<port id="0" precision="I8">
					<dim>128</dim>
					<dim>128</dim>
					<dim>1</dim>
					<dim>1</dim>
				</port>
			</output>
		</layer>
		<layer id="196" name="Convert_542579" type="Convert" version="opset1">
			<data destination_type="f32" />
			<input>
				<port id="0" precision="I8">
					<dim>128</dim>
					<dim>128</dim>
					<dim>1</dim>
					<dim>1</dim>
				</port>
			</input>
			<output>
				<port id="1" precision="FP32">
					<dim>128</dim>
					<dim>128</dim>
					<dim>1</dim>
					<dim>1</dim>
				</port>
			</output>
		</layer>
		<layer id="197" name="Constant_542580" type="Const" version="opset1">
			<data element_type="f32" shape="128, 1, 1, 1" offset="241464" size="512" />
			<output>
				<port id="0" precision="FP32">
					<dim>128</dim>
					<dim>1</dim>
					<dim>1</dim>
					<dim>1</dim>
				</port>
			</output>
		</layer>
		<layer id="198" name="__module.model.6.cv1.conv/aten::_convolution/Convolution/fq_weights_1" type="Multiply" version="opset1">
			<data auto_broadcast="numpy" />
			<input>
				<port id="0" precision="FP32">
					<dim>128</dim>
					<dim>128</dim>
					<dim>1</dim>
					<dim>1</dim>
				</port>
				<port id="1" precision="FP32">
					<dim>128</dim>
					<dim>1</dim>
					<dim>1</dim>
					<dim>1</dim>
				</port>
			</input>
			<output>
				<port id="2" precision="FP32">
					<dim>128</dim>
					<dim>128</dim>
					<dim>1</dim>
					<dim>1</dim>
				</port>
			</output>
		</layer>
		<layer id="199" name="__module.model.6.cv1.conv/aten::_convolution/Convolution" type="Convolution" version="opset1">
			<data strides="1, 1" dilations="1, 1" pads_begin="0, 0" pads_end="0, 0" auto_pad="explicit" />
			<input>
				<port id="0" precision="FP32">
					<dim>1</dim>
					<dim>128</dim>
					<dim>40</dim>
					<dim>40</dim>
				</port>
				<port id="1" precision="FP32">
					<dim>128</dim>
					<dim>128</dim>
					<dim>1</dim>
					<dim>1</dim>
				</port>
			</input>
			<output>
				<port id="2" precision="FP32">
					<dim>1</dim>
					<dim>128</dim>
					<dim>40</dim>
					<dim>40</dim>
				</port>
			</output>
		</layer>
		<layer id="200" name="__module.model.6.cv1.conv/aten::_convolution/Reshape_compressed" type="Const" version="opset1">
			<data element_type="f16" shape="1, 128, 1, 1" offset="241976" size="256" />
			<output>
				<port id="0" precision="FP16">
					<dim>1</dim>
					<dim>128</dim>
					<dim>1</dim>
					<dim>1</dim>
				</port>
			</output>
		</layer>
		<layer id="201" name="__module.model.6.cv1.conv/aten::_convolution/Reshape" type="Convert" version="opset1">
			<data destination_type="f32" />
			<rt_info>
				<attribute name="decompression" version="0" />
			</rt_info>
			<input>
				<port id="0" precision="FP16">
					<dim>1</dim>
					<dim>128</dim>
					<dim>1</dim>
					<dim>1</dim>
				</port>
			</input>
			<output>
				<port id="1" precision="FP32">
					<dim>1</dim>
					<dim>128</dim>
					<dim>1</dim>
					<dim>1</dim>
				</port>
			</output>
		</layer>
		<layer id="202" name="__module.model.6.cv1.conv/aten::_convolution/Add" type="Add" version="opset1">
			<data auto_broadcast="numpy" />
			<input>
				<port id="0" precision="FP32">
					<dim>1</dim>
					<dim>128</dim>
					<dim>40</dim>
					<dim>40</dim>
				</port>
				<port id="1" precision="FP32">
					<dim>1</dim>
					<dim>128</dim>
					<dim>1</dim>
					<dim>1</dim>
				</port>
			</input>
			<output>
				<port id="2" precision="FP32" names="261_1">
					<dim>1</dim>
					<dim>128</dim>
					<dim>40</dim>
					<dim>40</dim>
				</port>
			</output>
		</layer>
		<layer id="203" name="__module.model.23.cv3.2.1.1.act/aten::silu_/Swish_12" type="Swish" version="opset4">
			<input>
				<port id="0" precision="FP32">
					<dim>1</dim>
					<dim>128</dim>
					<dim>40</dim>
					<dim>40</dim>
				</port>
			</input>
			<output>
				<port id="1" precision="FP32" names="261,input.49">
					<dim>1</dim>
					<dim>128</dim>
					<dim>40</dim>
					<dim>40</dim>
				</port>
			</output>
		</layer>
		<layer id="204" name="__module.model.23.cv3.2.1.1.act/aten::silu_/Swish_12/fq_output_0/input_low" type="Const" version="opset1">
			<data element_type="f32" shape="" offset="12520" size="4" />
			<output>
				<port id="0" precision="FP32" />
			</output>
		</layer>
		<layer id="205" name="__module.model.23.cv3.2.1.1.act/aten::silu_/Swish_12/fq_output_0/input_high" type="Const" version="opset1">
			<data element_type="f32" shape="" offset="63792" size="4" />
			<output>
				<port id="0" precision="FP32" />
			</output>
		</layer>
		<layer id="206" name="__module.model.23.cv3.2.1.1.act/aten::silu_/Swish_12/fq_output_0/output_low" type="Const" version="opset1">
			<data element_type="f32" shape="" offset="12520" size="4" />
			<output>
				<port id="0" precision="FP32" />
			</output>
		</layer>
		<layer id="207" name="__module.model.23.cv3.2.1.1.act/aten::silu_/Swish_12/fq_output_0/output_high" type="Const" version="opset1">
			<data element_type="f32" shape="" offset="63792" size="4" />
			<output>
				<port id="0" precision="FP32" />
			</output>
		</layer>
		<layer id="208" name="__module.model.23.cv3.2.1.1.act/aten::silu_/Swish_12/fq_output_0" type="FakeQuantize" version="opset1">
			<data levels="256" auto_broadcast="numpy" />
			<input>
				<port id="0" precision="FP32">
					<dim>1</dim>
					<dim>128</dim>
					<dim>40</dim>
					<dim>40</dim>
				</port>
				<port id="1" precision="FP32" />
				<port id="2" precision="FP32" />
				<port id="3" precision="FP32" />
				<port id="4" precision="FP32" />
			</input>
			<output>
				<port id="5" precision="FP32">
					<dim>1</dim>
					<dim>128</dim>
					<dim>40</dim>
					<dim>40</dim>
				</port>
			</output>
		</layer>
		<layer id="209" name="249" type="Const" version="opset1">
			<data element_type="i64" shape="" offset="6576" size="8" />
			<output>
				<port id="0" precision="I64" names="249" />
			</output>
		</layer>
		<layer id="210" name="Constant_730" type="Const" version="opset1">
			<data element_type="i64" shape="2" offset="242232" size="16" />
			<output>
				<port id="0" precision="I64" names="263">
					<dim>2</dim>
				</port>
			</output>
		</layer>
		<layer id="211" name="__module.model.6/prim::ListUnpack" type="VariadicSplit" version="opset1">
			<input>
				<port id="0" precision="FP32">
					<dim>1</dim>
					<dim>128</dim>
					<dim>40</dim>
					<dim>40</dim>
				</port>
				<port id="1" precision="I64" />
				<port id="2" precision="I64">
					<dim>2</dim>
				</port>
			</input>
			<output>
				<port id="3" precision="FP32" names="265">
					<dim>1</dim>
					<dim>64</dim>
					<dim>40</dim>
					<dim>40</dim>
				</port>
				<port id="4" precision="FP32" names="266,input.51">
					<dim>1</dim>
					<dim>64</dim>
					<dim>40</dim>
					<dim>40</dim>
				</port>
			</output>
		</layer>
		<layer id="212" name="Constant_542583" type="Const" version="opset1">
			<data element_type="i8" shape="32, 64, 1, 1" offset="242248" size="2048" />
			<output>
				<port id="0" precision="I8">
					<dim>32</dim>
					<dim>64</dim>
					<dim>1</dim>
					<dim>1</dim>
				</port>
			</output>
		</layer>
		<layer id="213" name="Convert_542584" type="Convert" version="opset1">
			<data destination_type="f32" />
			<input>
				<port id="0" precision="I8">
					<dim>32</dim>
					<dim>64</dim>
					<dim>1</dim>
					<dim>1</dim>
				</port>
			</input>
			<output>
				<port id="1" precision="FP32">
					<dim>32</dim>
					<dim>64</dim>
					<dim>1</dim>
					<dim>1</dim>
				</port>
			</output>
		</layer>
		<layer id="214" name="Constant_542585" type="Const" version="opset1">
			<data element_type="f32" shape="32, 1, 1, 1" offset="244296" size="128" />
			<output>
				<port id="0" precision="FP32">
					<dim>32</dim>
					<dim>1</dim>
					<dim>1</dim>
					<dim>1</dim>
				</port>
			</output>
		</layer>
		<layer id="215" name="__module.model.6.m.0.cv1.conv/aten::_convolution/Convolution/fq_weights_1" type="Multiply" version="opset1">
			<data auto_broadcast="numpy" />
			<input>
				<port id="0" precision="FP32">
					<dim>32</dim>
					<dim>64</dim>
					<dim>1</dim>
					<dim>1</dim>
				</port>
				<port id="1" precision="FP32">
					<dim>32</dim>
					<dim>1</dim>
					<dim>1</dim>
					<dim>1</dim>
				</port>
			</input>
			<output>
				<port id="2" precision="FP32">
					<dim>32</dim>
					<dim>64</dim>
					<dim>1</dim>
					<dim>1</dim>
				</port>
			</output>
		</layer>
		<layer id="216" name="__module.model.6.m.0.cv1.conv/aten::_convolution/Convolution" type="Convolution" version="opset1">
			<data strides="1, 1" dilations="1, 1" pads_begin="0, 0" pads_end="0, 0" auto_pad="explicit" />
			<input>
				<port id="0" precision="FP32">
					<dim>1</dim>
					<dim>64</dim>
					<dim>40</dim>
					<dim>40</dim>
				</port>
				<port id="1" precision="FP32">
					<dim>32</dim>
					<dim>64</dim>
					<dim>1</dim>
					<dim>1</dim>
				</port>
			</input>
			<output>
				<port id="2" precision="FP32">
					<dim>1</dim>
					<dim>32</dim>
					<dim>40</dim>
					<dim>40</dim>
				</port>
			</output>
		</layer>
		<layer id="217" name="__module.model.6.m.0.cv1.conv/aten::_convolution/Reshape_compressed" type="Const" version="opset1">
			<data element_type="f16" shape="1, 32, 1, 1" offset="244424" size="64" />
			<output>
				<port id="0" precision="FP16">
					<dim>1</dim>
					<dim>32</dim>
					<dim>1</dim>
					<dim>1</dim>
				</port>
			</output>
		</layer>
		<layer id="218" name="__module.model.6.m.0.cv1.conv/aten::_convolution/Reshape" type="Convert" version="opset1">
			<data destination_type="f32" />
			<rt_info>
				<attribute name="decompression" version="0" />
			</rt_info>
			<input>
				<port id="0" precision="FP16">
					<dim>1</dim>
					<dim>32</dim>
					<dim>1</dim>
					<dim>1</dim>
				</port>
			</input>
			<output>
				<port id="1" precision="FP32">
					<dim>1</dim>
					<dim>32</dim>
					<dim>1</dim>
					<dim>1</dim>
				</port>
			</output>
		</layer>
		<layer id="219" name="__module.model.6.m.0.cv1.conv/aten::_convolution/Add" type="Add" version="opset1">
			<data auto_broadcast="numpy" />
			<input>
				<port id="0" precision="FP32">
					<dim>1</dim>
					<dim>32</dim>
					<dim>40</dim>
					<dim>40</dim>
				</port>
				<port id="1" precision="FP32">
					<dim>1</dim>
					<dim>32</dim>
					<dim>1</dim>
					<dim>1</dim>
				</port>
			</input>
			<output>
				<port id="2" precision="FP32" names="278_1">
					<dim>1</dim>
					<dim>32</dim>
					<dim>40</dim>
					<dim>40</dim>
				</port>
			</output>
		</layer>
		<layer id="220" name="__module.model.23.cv3.2.1.1.act/aten::silu_/Swish_13" type="Swish" version="opset4">
			<input>
				<port id="0" precision="FP32">
					<dim>1</dim>
					<dim>32</dim>
					<dim>40</dim>
					<dim>40</dim>
				</port>
			</input>
			<output>
				<port id="1" precision="FP32" names="278,input.53">
					<dim>1</dim>
					<dim>32</dim>
					<dim>40</dim>
					<dim>40</dim>
				</port>
			</output>
		</layer>
		<layer id="221" name="__module.model.23.cv3.2.1.1.act/aten::silu_/Swish_13/fq_output_0/input_low" type="Const" version="opset1">
			<data element_type="f32" shape="" offset="244488" size="4" />
			<output>
				<port id="0" precision="FP32" />
			</output>
		</layer>
		<layer id="222" name="__module.model.23.cv3.2.1.1.act/aten::silu_/Swish_13/fq_output_0/input_high" type="Const" version="opset1">
			<data element_type="f32" shape="" offset="244492" size="4" />
			<output>
				<port id="0" precision="FP32" />
			</output>
		</layer>
		<layer id="223" name="__module.model.23.cv3.2.1.1.act/aten::silu_/Swish_13/fq_output_0/output_low" type="Const" version="opset1">
			<data element_type="f32" shape="" offset="244488" size="4" />
			<output>
				<port id="0" precision="FP32" />
			</output>
		</layer>
		<layer id="224" name="__module.model.23.cv3.2.1.1.act/aten::silu_/Swish_13/fq_output_0/output_high" type="Const" version="opset1">
			<data element_type="f32" shape="" offset="244492" size="4" />
			<output>
				<port id="0" precision="FP32" />
			</output>
		</layer>
		<layer id="225" name="__module.model.23.cv3.2.1.1.act/aten::silu_/Swish_13/fq_output_0" type="FakeQuantize" version="opset1">
			<data levels="256" auto_broadcast="numpy" />
			<input>
				<port id="0" precision="FP32">
					<dim>1</dim>
					<dim>32</dim>
					<dim>40</dim>
					<dim>40</dim>
				</port>
				<port id="1" precision="FP32" />
				<port id="2" precision="FP32" />
				<port id="3" precision="FP32" />
				<port id="4" precision="FP32" />
			</input>
			<output>
				<port id="5" precision="FP32">
					<dim>1</dim>
					<dim>32</dim>
					<dim>40</dim>
					<dim>40</dim>
				</port>
			</output>
		</layer>
		<layer id="226" name="Constant_542588" type="Const" version="opset1">
			<data element_type="i8" shape="32, 32, 3, 3" offset="244496" size="9216" />
			<output>
				<port id="0" precision="I8">
					<dim>32</dim>
					<dim>32</dim>
					<dim>3</dim>
					<dim>3</dim>
				</port>
			</output>
		</layer>
		<layer id="227" name="Convert_542589" type="Convert" version="opset1">
			<data destination_type="f32" />
			<input>
				<port id="0" precision="I8">
					<dim>32</dim>
					<dim>32</dim>
					<dim>3</dim>
					<dim>3</dim>
				</port>
			</input>
			<output>
				<port id="1" precision="FP32">
					<dim>32</dim>
					<dim>32</dim>
					<dim>3</dim>
					<dim>3</dim>
				</port>
			</output>
		</layer>
		<layer id="228" name="Constant_542590" type="Const" version="opset1">
			<data element_type="f32" shape="32, 1, 1, 1" offset="253712" size="128" />
			<output>
				<port id="0" precision="FP32">
					<dim>32</dim>
					<dim>1</dim>
					<dim>1</dim>
					<dim>1</dim>
				</port>
			</output>
		</layer>
		<layer id="229" name="__module.model.6.m.0.m.0.cv1.conv/aten::_convolution/Convolution/fq_weights_1" type="Multiply" version="opset1">
			<data auto_broadcast="numpy" />
			<input>
				<port id="0" precision="FP32">
					<dim>32</dim>
					<dim>32</dim>
					<dim>3</dim>
					<dim>3</dim>
				</port>
				<port id="1" precision="FP32">
					<dim>32</dim>
					<dim>1</dim>
					<dim>1</dim>
					<dim>1</dim>
				</port>
			</input>
			<output>
				<port id="2" precision="FP32">
					<dim>32</dim>
					<dim>32</dim>
					<dim>3</dim>
					<dim>3</dim>
				</port>
			</output>
		</layer>
		<layer id="230" name="__module.model.6.m.0.m.0.cv1.conv/aten::_convolution/Convolution" type="Convolution" version="opset1">
			<data strides="1, 1" dilations="1, 1" pads_begin="1, 1" pads_end="1, 1" auto_pad="explicit" />
			<input>
				<port id="0" precision="FP32">
					<dim>1</dim>
					<dim>32</dim>
					<dim>40</dim>
					<dim>40</dim>
				</port>
				<port id="1" precision="FP32">
					<dim>32</dim>
					<dim>32</dim>
					<dim>3</dim>
					<dim>3</dim>
				</port>
			</input>
			<output>
				<port id="2" precision="FP32">
					<dim>1</dim>
					<dim>32</dim>
					<dim>40</dim>
					<dim>40</dim>
				</port>
			</output>
		</layer>
		<layer id="231" name="__module.model.6.m.0.m.0.cv1.conv/aten::_convolution/Reshape_compressed" type="Const" version="opset1">
			<data element_type="f16" shape="1, 32, 1, 1" offset="253840" size="64" />
			<output>
				<port id="0" precision="FP16">
					<dim>1</dim>
					<dim>32</dim>
					<dim>1</dim>
					<dim>1</dim>
				</port>
			</output>
		</layer>
		<layer id="232" name="__module.model.6.m.0.m.0.cv1.conv/aten::_convolution/Reshape" type="Convert" version="opset1">
			<data destination_type="f32" />
			<rt_info>
				<attribute name="decompression" version="0" />
			</rt_info>
			<input>
				<port id="0" precision="FP16">
					<dim>1</dim>
					<dim>32</dim>
					<dim>1</dim>
					<dim>1</dim>
				</port>
			</input>
			<output>
				<port id="1" precision="FP32">
					<dim>1</dim>
					<dim>32</dim>
					<dim>1</dim>
					<dim>1</dim>
				</port>
			</output>
		</layer>
		<layer id="233" name="__module.model.6.m.0.m.0.cv1.conv/aten::_convolution/Add" type="Add" version="opset1">
			<data auto_broadcast="numpy" />
			<input>
				<port id="0" precision="FP32">
					<dim>1</dim>
					<dim>32</dim>
					<dim>40</dim>
					<dim>40</dim>
				</port>
				<port id="1" precision="FP32">
					<dim>1</dim>
					<dim>32</dim>
					<dim>1</dim>
					<dim>1</dim>
				</port>
			</input>
			<output>
				<port id="2" precision="FP32" names="291_1">
					<dim>1</dim>
					<dim>32</dim>
					<dim>40</dim>
					<dim>40</dim>
				</port>
			</output>
		</layer>
		<layer id="234" name="__module.model.23.cv3.2.1.1.act/aten::silu_/Swish_14" type="Swish" version="opset4">
			<input>
				<port id="0" precision="FP32">
					<dim>1</dim>
					<dim>32</dim>
					<dim>40</dim>
					<dim>40</dim>
				</port>
			</input>
			<output>
				<port id="1" precision="FP32" names="291,input.57">
					<dim>1</dim>
					<dim>32</dim>
					<dim>40</dim>
					<dim>40</dim>
				</port>
			</output>
		</layer>
		<layer id="235" name="__module.model.23.cv3.2.1.1.act/aten::silu_/Swish_14/fq_output_0/input_low" type="Const" version="opset1">
			<data element_type="f32" shape="" offset="253904" size="4" />
			<output>
				<port id="0" precision="FP32" />
			</output>
		</layer>
		<layer id="236" name="__module.model.23.cv3.2.1.1.act/aten::silu_/Swish_14/fq_output_0/input_high" type="Const" version="opset1">
			<data element_type="f32" shape="" offset="253908" size="4" />
			<output>
				<port id="0" precision="FP32" />
			</output>
		</layer>
		<layer id="237" name="__module.model.23.cv3.2.1.1.act/aten::silu_/Swish_14/fq_output_0/output_low" type="Const" version="opset1">
			<data element_type="f32" shape="" offset="253904" size="4" />
			<output>
				<port id="0" precision="FP32" />
			</output>
		</layer>
		<layer id="238" name="__module.model.23.cv3.2.1.1.act/aten::silu_/Swish_14/fq_output_0/output_high" type="Const" version="opset1">
			<data element_type="f32" shape="" offset="253908" size="4" />
			<output>
				<port id="0" precision="FP32" />
			</output>
		</layer>
		<layer id="239" name="__module.model.23.cv3.2.1.1.act/aten::silu_/Swish_14/fq_output_0" type="FakeQuantize" version="opset1">
			<data levels="256" auto_broadcast="numpy" />
			<input>
				<port id="0" precision="FP32">
					<dim>1</dim>
					<dim>32</dim>
					<dim>40</dim>
					<dim>40</dim>
				</port>
				<port id="1" precision="FP32" />
				<port id="2" precision="FP32" />
				<port id="3" precision="FP32" />
				<port id="4" precision="FP32" />
			</input>
			<output>
				<port id="5" precision="FP32">
					<dim>1</dim>
					<dim>32</dim>
					<dim>40</dim>
					<dim>40</dim>
				</port>
			</output>
		</layer>
		<layer id="240" name="Constant_542593" type="Const" version="opset1">
			<data element_type="i8" shape="32, 32, 3, 3" offset="253912" size="9216" />
			<output>
				<port id="0" precision="I8">
					<dim>32</dim>
					<dim>32</dim>
					<dim>3</dim>
					<dim>3</dim>
				</port>
			</output>
		</layer>
		<layer id="241" name="Convert_542594" type="Convert" version="opset1">
			<data destination_type="f32" />
			<input>
				<port id="0" precision="I8">
					<dim>32</dim>
					<dim>32</dim>
					<dim>3</dim>
					<dim>3</dim>
				</port>
			</input>
			<output>
				<port id="1" precision="FP32">
					<dim>32</dim>
					<dim>32</dim>
					<dim>3</dim>
					<dim>3</dim>
				</port>
			</output>
		</layer>
		<layer id="242" name="Constant_542595" type="Const" version="opset1">
			<data element_type="f32" shape="32, 1, 1, 1" offset="263128" size="128" />
			<output>
				<port id="0" precision="FP32">
					<dim>32</dim>
					<dim>1</dim>
					<dim>1</dim>
					<dim>1</dim>
				</port>
			</output>
		</layer>
		<layer id="243" name="__module.model.6.m.0.m.0.cv2.conv/aten::_convolution/Convolution/fq_weights_1" type="Multiply" version="opset1">
			<data auto_broadcast="numpy" />
			<input>
				<port id="0" precision="FP32">
					<dim>32</dim>
					<dim>32</dim>
					<dim>3</dim>
					<dim>3</dim>
				</port>
				<port id="1" precision="FP32">
					<dim>32</dim>
					<dim>1</dim>
					<dim>1</dim>
					<dim>1</dim>
				</port>
			</input>
			<output>
				<port id="2" precision="FP32">
					<dim>32</dim>
					<dim>32</dim>
					<dim>3</dim>
					<dim>3</dim>
				</port>
			</output>
		</layer>
		<layer id="244" name="__module.model.6.m.0.m.0.cv2.conv/aten::_convolution/Convolution" type="Convolution" version="opset1">
			<data strides="1, 1" dilations="1, 1" pads_begin="1, 1" pads_end="1, 1" auto_pad="explicit" />
			<input>
				<port id="0" precision="FP32">
					<dim>1</dim>
					<dim>32</dim>
					<dim>40</dim>
					<dim>40</dim>
				</port>
				<port id="1" precision="FP32">
					<dim>32</dim>
					<dim>32</dim>
					<dim>3</dim>
					<dim>3</dim>
				</port>
			</input>
			<output>
				<port id="2" precision="FP32">
					<dim>1</dim>
					<dim>32</dim>
					<dim>40</dim>
					<dim>40</dim>
				</port>
			</output>
		</layer>
		<layer id="245" name="__module.model.6.m.0.m.0.cv2.conv/aten::_convolution/Reshape_compressed" type="Const" version="opset1">
			<data element_type="f16" shape="1, 32, 1, 1" offset="263256" size="64" />
			<output>
				<port id="0" precision="FP16">
					<dim>1</dim>
					<dim>32</dim>
					<dim>1</dim>
					<dim>1</dim>
				</port>
			</output>
		</layer>
		<layer id="246" name="__module.model.6.m.0.m.0.cv2.conv/aten::_convolution/Reshape" type="Convert" version="opset1">
			<data destination_type="f32" />
			<rt_info>
				<attribute name="decompression" version="0" />
			</rt_info>
			<input>
				<port id="0" precision="FP16">
					<dim>1</dim>
					<dim>32</dim>
					<dim>1</dim>
					<dim>1</dim>
				</port>
			</input>
			<output>
				<port id="1" precision="FP32">
					<dim>1</dim>
					<dim>32</dim>
					<dim>1</dim>
					<dim>1</dim>
				</port>
			</output>
		</layer>
		<layer id="247" name="__module.model.6.m.0.m.0.cv2.conv/aten::_convolution/Add" type="Add" version="opset1">
			<data auto_broadcast="numpy" />
			<input>
				<port id="0" precision="FP32">
					<dim>1</dim>
					<dim>32</dim>
					<dim>40</dim>
					<dim>40</dim>
				</port>
				<port id="1" precision="FP32">
					<dim>1</dim>
					<dim>32</dim>
					<dim>1</dim>
					<dim>1</dim>
				</port>
			</input>
			<output>
				<port id="2" precision="FP32" names="300_1">
					<dim>1</dim>
					<dim>32</dim>
					<dim>40</dim>
					<dim>40</dim>
				</port>
			</output>
		</layer>
		<layer id="248" name="__module.model.23.cv3.2.1.1.act/aten::silu_/Swish_15" type="Swish" version="opset4">
			<input>
				<port id="0" precision="FP32">
					<dim>1</dim>
					<dim>32</dim>
					<dim>40</dim>
					<dim>40</dim>
				</port>
			</input>
			<output>
				<port id="1" precision="FP32" names="300,input.61">
					<dim>1</dim>
					<dim>32</dim>
					<dim>40</dim>
					<dim>40</dim>
				</port>
			</output>
		</layer>
		<layer id="249" name="__module.model.23.cv3.2.1.1.act/aten::silu_/Swish_15/fq_output_0/input_low" type="Const" version="opset1">
			<data element_type="f32" shape="" offset="263320" size="4" />
			<output>
				<port id="0" precision="FP32" />
			</output>
		</layer>
		<layer id="250" name="__module.model.23.cv3.2.1.1.act/aten::silu_/Swish_15/fq_output_0/input_high" type="Const" version="opset1">
			<data element_type="f32" shape="" offset="263324" size="4" />
			<output>
				<port id="0" precision="FP32" />
			</output>
		</layer>
		<layer id="251" name="__module.model.23.cv3.2.1.1.act/aten::silu_/Swish_15/fq_output_0/output_low" type="Const" version="opset1">
			<data element_type="f32" shape="" offset="263320" size="4" />
			<output>
				<port id="0" precision="FP32" />
			</output>
		</layer>
		<layer id="252" name="__module.model.23.cv3.2.1.1.act/aten::silu_/Swish_15/fq_output_0/output_high" type="Const" version="opset1">
			<data element_type="f32" shape="" offset="263324" size="4" />
			<output>
				<port id="0" precision="FP32" />
			</output>
		</layer>
		<layer id="253" name="__module.model.23.cv3.2.1.1.act/aten::silu_/Swish_15/fq_output_0" type="FakeQuantize" version="opset1">
			<data levels="256" auto_broadcast="numpy" />
			<input>
				<port id="0" precision="FP32">
					<dim>1</dim>
					<dim>32</dim>
					<dim>40</dim>
					<dim>40</dim>
				</port>
				<port id="1" precision="FP32" />
				<port id="2" precision="FP32" />
				<port id="3" precision="FP32" />
				<port id="4" precision="FP32" />
			</input>
			<output>
				<port id="5" precision="FP32">
					<dim>1</dim>
					<dim>32</dim>
					<dim>40</dim>
					<dim>40</dim>
				</port>
			</output>
		</layer>
		<layer id="254" name="__module.model.6.m.0.m.0/aten::add/Add" type="Add" version="opset1">
			<data auto_broadcast="numpy" />
			<input>
				<port id="0" precision="FP32">
					<dim>1</dim>
					<dim>32</dim>
					<dim>40</dim>
					<dim>40</dim>
				</port>
				<port id="1" precision="FP32">
					<dim>1</dim>
					<dim>32</dim>
					<dim>40</dim>
					<dim>40</dim>
				</port>
			</input>
			<output>
				<port id="2" precision="FP32" names="302,input.63">
					<dim>1</dim>
					<dim>32</dim>
					<dim>40</dim>
					<dim>40</dim>
				</port>
			</output>
		</layer>
		<layer id="255" name="__module.model.6.m.0.m.0/aten::add/Add/fq_output_0/input_low" type="Const" version="opset1">
			<data element_type="f32" shape="" offset="263328" size="4" />
			<output>
				<port id="0" precision="FP32" />
			</output>
		</layer>
		<layer id="256" name="__module.model.6.m.0.m.0/aten::add/Add/fq_output_0/input_high" type="Const" version="opset1">
			<data element_type="f32" shape="" offset="263332" size="4" />
			<output>
				<port id="0" precision="FP32" />
			</output>
		</layer>
		<layer id="257" name="__module.model.6.m.0.m.0/aten::add/Add/fq_output_0/output_low" type="Const" version="opset1">
			<data element_type="f32" shape="" offset="263328" size="4" />
			<output>
				<port id="0" precision="FP32" />
			</output>
		</layer>
		<layer id="258" name="__module.model.6.m.0.m.0/aten::add/Add/fq_output_0/output_high" type="Const" version="opset1">
			<data element_type="f32" shape="" offset="263332" size="4" />
			<output>
				<port id="0" precision="FP32" />
			</output>
		</layer>
		<layer id="259" name="__module.model.6.m.0.m.0/aten::add/Add/fq_output_0" type="FakeQuantize" version="opset1">
			<data levels="256" auto_broadcast="numpy" />
			<input>
				<port id="0" precision="FP32">
					<dim>1</dim>
					<dim>32</dim>
					<dim>40</dim>
					<dim>40</dim>
				</port>
				<port id="1" precision="FP32" />
				<port id="2" precision="FP32" />
				<port id="3" precision="FP32" />
				<port id="4" precision="FP32" />
			</input>
			<output>
				<port id="5" precision="FP32">
					<dim>1</dim>
					<dim>32</dim>
					<dim>40</dim>
					<dim>40</dim>
				</port>
			</output>
		</layer>
		<layer id="260" name="Constant_542598" type="Const" version="opset1">
			<data element_type="i8" shape="32, 32, 3, 3" offset="263336" size="9216" />
			<output>
				<port id="0" precision="I8">
					<dim>32</dim>
					<dim>32</dim>
					<dim>3</dim>
					<dim>3</dim>
				</port>
			</output>
		</layer>
		<layer id="261" name="Convert_542599" type="Convert" version="opset1">
			<data destination_type="f32" />
			<input>
				<port id="0" precision="I8">
					<dim>32</dim>
					<dim>32</dim>
					<dim>3</dim>
					<dim>3</dim>
				</port>
			</input>
			<output>
				<port id="1" precision="FP32">
					<dim>32</dim>
					<dim>32</dim>
					<dim>3</dim>
					<dim>3</dim>
				</port>
			</output>
		</layer>
		<layer id="262" name="Constant_542600" type="Const" version="opset1">
			<data element_type="f32" shape="32, 1, 1, 1" offset="272552" size="128" />
			<output>
				<port id="0" precision="FP32">
					<dim>32</dim>
					<dim>1</dim>
					<dim>1</dim>
					<dim>1</dim>
				</port>
			</output>
		</layer>
		<layer id="263" name="__module.model.6.m.0.m.1.cv1.conv/aten::_convolution/Convolution/fq_weights_1" type="Multiply" version="opset1">
			<data auto_broadcast="numpy" />
			<input>
				<port id="0" precision="FP32">
					<dim>32</dim>
					<dim>32</dim>
					<dim>3</dim>
					<dim>3</dim>
				</port>
				<port id="1" precision="FP32">
					<dim>32</dim>
					<dim>1</dim>
					<dim>1</dim>
					<dim>1</dim>
				</port>
			</input>
			<output>
				<port id="2" precision="FP32">
					<dim>32</dim>
					<dim>32</dim>
					<dim>3</dim>
					<dim>3</dim>
				</port>
			</output>
		</layer>
		<layer id="264" name="__module.model.6.m.0.m.1.cv1.conv/aten::_convolution/Convolution" type="Convolution" version="opset1">
			<data strides="1, 1" dilations="1, 1" pads_begin="1, 1" pads_end="1, 1" auto_pad="explicit" />
			<input>
				<port id="0" precision="FP32">
					<dim>1</dim>
					<dim>32</dim>
					<dim>40</dim>
					<dim>40</dim>
				</port>
				<port id="1" precision="FP32">
					<dim>32</dim>
					<dim>32</dim>
					<dim>3</dim>
					<dim>3</dim>
				</port>
			</input>
			<output>
				<port id="2" precision="FP32">
					<dim>1</dim>
					<dim>32</dim>
					<dim>40</dim>
					<dim>40</dim>
				</port>
			</output>
		</layer>
		<layer id="265" name="__module.model.6.m.0.m.1.cv1.conv/aten::_convolution/Reshape_compressed" type="Const" version="opset1">
			<data element_type="f16" shape="1, 32, 1, 1" offset="272680" size="64" />
			<output>
				<port id="0" precision="FP16">
					<dim>1</dim>
					<dim>32</dim>
					<dim>1</dim>
					<dim>1</dim>
				</port>
			</output>
		</layer>
		<layer id="266" name="__module.model.6.m.0.m.1.cv1.conv/aten::_convolution/Reshape" type="Convert" version="opset1">
			<data destination_type="f32" />
			<rt_info>
				<attribute name="decompression" version="0" />
			</rt_info>
			<input>
				<port id="0" precision="FP16">
					<dim>1</dim>
					<dim>32</dim>
					<dim>1</dim>
					<dim>1</dim>
				</port>
			</input>
			<output>
				<port id="1" precision="FP32">
					<dim>1</dim>
					<dim>32</dim>
					<dim>1</dim>
					<dim>1</dim>
				</port>
			</output>
		</layer>
		<layer id="267" name="__module.model.6.m.0.m.1.cv1.conv/aten::_convolution/Add" type="Add" version="opset1">
			<data auto_broadcast="numpy" />
			<input>
				<port id="0" precision="FP32">
					<dim>1</dim>
					<dim>32</dim>
					<dim>40</dim>
					<dim>40</dim>
				</port>
				<port id="1" precision="FP32">
					<dim>1</dim>
					<dim>32</dim>
					<dim>1</dim>
					<dim>1</dim>
				</port>
			</input>
			<output>
				<port id="2" precision="FP32" names="312_1">
					<dim>1</dim>
					<dim>32</dim>
					<dim>40</dim>
					<dim>40</dim>
				</port>
			</output>
		</layer>
		<layer id="268" name="__module.model.23.cv3.2.1.1.act/aten::silu_/Swish_16" type="Swish" version="opset4">
			<input>
				<port id="0" precision="FP32">
					<dim>1</dim>
					<dim>32</dim>
					<dim>40</dim>
					<dim>40</dim>
				</port>
			</input>
			<output>
				<port id="1" precision="FP32" names="312,input.65">
					<dim>1</dim>
					<dim>32</dim>
					<dim>40</dim>
					<dim>40</dim>
				</port>
			</output>
		</layer>
		<layer id="269" name="__module.model.23.cv3.2.1.1.act/aten::silu_/Swish_16/fq_output_0/input_low" type="Const" version="opset1">
			<data element_type="f32" shape="" offset="12520" size="4" />
			<output>
				<port id="0" precision="FP32" />
			</output>
		</layer>
		<layer id="270" name="__module.model.23.cv3.2.1.1.act/aten::silu_/Swish_16/fq_output_0/input_high" type="Const" version="opset1">
			<data element_type="f32" shape="" offset="272744" size="4" />
			<output>
				<port id="0" precision="FP32" />
			</output>
		</layer>
		<layer id="271" name="__module.model.23.cv3.2.1.1.act/aten::silu_/Swish_16/fq_output_0/output_low" type="Const" version="opset1">
			<data element_type="f32" shape="" offset="12520" size="4" />
			<output>
				<port id="0" precision="FP32" />
			</output>
		</layer>
		<layer id="272" name="__module.model.23.cv3.2.1.1.act/aten::silu_/Swish_16/fq_output_0/output_high" type="Const" version="opset1">
			<data element_type="f32" shape="" offset="272744" size="4" />
			<output>
				<port id="0" precision="FP32" />
			</output>
		</layer>
		<layer id="273" name="__module.model.23.cv3.2.1.1.act/aten::silu_/Swish_16/fq_output_0" type="FakeQuantize" version="opset1">
			<data levels="256" auto_broadcast="numpy" />
			<input>
				<port id="0" precision="FP32">
					<dim>1</dim>
					<dim>32</dim>
					<dim>40</dim>
					<dim>40</dim>
				</port>
				<port id="1" precision="FP32" />
				<port id="2" precision="FP32" />
				<port id="3" precision="FP32" />
				<port id="4" precision="FP32" />
			</input>
			<output>
				<port id="5" precision="FP32">
					<dim>1</dim>
					<dim>32</dim>
					<dim>40</dim>
					<dim>40</dim>
				</port>
			</output>
		</layer>
		<layer id="274" name="Constant_542603" type="Const" version="opset1">
			<data element_type="i8" shape="32, 32, 3, 3" offset="272748" size="9216" />
			<output>
				<port id="0" precision="I8">
					<dim>32</dim>
					<dim>32</dim>
					<dim>3</dim>
					<dim>3</dim>
				</port>
			</output>
		</layer>
		<layer id="275" name="Convert_542604" type="Convert" version="opset1">
			<data destination_type="f32" />
			<input>
				<port id="0" precision="I8">
					<dim>32</dim>
					<dim>32</dim>
					<dim>3</dim>
					<dim>3</dim>
				</port>
			</input>
			<output>
				<port id="1" precision="FP32">
					<dim>32</dim>
					<dim>32</dim>
					<dim>3</dim>
					<dim>3</dim>
				</port>
			</output>
		</layer>
		<layer id="276" name="Constant_542605" type="Const" version="opset1">
			<data element_type="f32" shape="32, 1, 1, 1" offset="281964" size="128" />
			<output>
				<port id="0" precision="FP32">
					<dim>32</dim>
					<dim>1</dim>
					<dim>1</dim>
					<dim>1</dim>
				</port>
			</output>
		</layer>
		<layer id="277" name="__module.model.6.m.0.m.1.cv2.conv/aten::_convolution/Convolution/fq_weights_1" type="Multiply" version="opset1">
			<data auto_broadcast="numpy" />
			<input>
				<port id="0" precision="FP32">
					<dim>32</dim>
					<dim>32</dim>
					<dim>3</dim>
					<dim>3</dim>
				</port>
				<port id="1" precision="FP32">
					<dim>32</dim>
					<dim>1</dim>
					<dim>1</dim>
					<dim>1</dim>
				</port>
			</input>
			<output>
				<port id="2" precision="FP32">
					<dim>32</dim>
					<dim>32</dim>
					<dim>3</dim>
					<dim>3</dim>
				</port>
			</output>
		</layer>
		<layer id="278" name="__module.model.6.m.0.m.1.cv2.conv/aten::_convolution/Convolution" type="Convolution" version="opset1">
			<data strides="1, 1" dilations="1, 1" pads_begin="1, 1" pads_end="1, 1" auto_pad="explicit" />
			<input>
				<port id="0" precision="FP32">
					<dim>1</dim>
					<dim>32</dim>
					<dim>40</dim>
					<dim>40</dim>
				</port>
				<port id="1" precision="FP32">
					<dim>32</dim>
					<dim>32</dim>
					<dim>3</dim>
					<dim>3</dim>
				</port>
			</input>
			<output>
				<port id="2" precision="FP32">
					<dim>1</dim>
					<dim>32</dim>
					<dim>40</dim>
					<dim>40</dim>
				</port>
			</output>
		</layer>
		<layer id="279" name="__module.model.6.m.0.m.1.cv2.conv/aten::_convolution/Reshape_compressed" type="Const" version="opset1">
			<data element_type="f16" shape="1, 32, 1, 1" offset="282092" size="64" />
			<output>
				<port id="0" precision="FP16">
					<dim>1</dim>
					<dim>32</dim>
					<dim>1</dim>
					<dim>1</dim>
				</port>
			</output>
		</layer>
		<layer id="280" name="__module.model.6.m.0.m.1.cv2.conv/aten::_convolution/Reshape" type="Convert" version="opset1">
			<data destination_type="f32" />
			<rt_info>
				<attribute name="decompression" version="0" />
			</rt_info>
			<input>
				<port id="0" precision="FP16">
					<dim>1</dim>
					<dim>32</dim>
					<dim>1</dim>
					<dim>1</dim>
				</port>
			</input>
			<output>
				<port id="1" precision="FP32">
					<dim>1</dim>
					<dim>32</dim>
					<dim>1</dim>
					<dim>1</dim>
				</port>
			</output>
		</layer>
		<layer id="281" name="__module.model.6.m.0.m.1.cv2.conv/aten::_convolution/Add" type="Add" version="opset1">
			<data auto_broadcast="numpy" />
			<input>
				<port id="0" precision="FP32">
					<dim>1</dim>
					<dim>32</dim>
					<dim>40</dim>
					<dim>40</dim>
				</port>
				<port id="1" precision="FP32">
					<dim>1</dim>
					<dim>32</dim>
					<dim>1</dim>
					<dim>1</dim>
				</port>
			</input>
			<output>
				<port id="2" precision="FP32" names="321_1">
					<dim>1</dim>
					<dim>32</dim>
					<dim>40</dim>
					<dim>40</dim>
				</port>
			</output>
		</layer>
		<layer id="282" name="__module.model.23.cv3.2.1.1.act/aten::silu_/Swish_17" type="Swish" version="opset4">
			<input>
				<port id="0" precision="FP32">
					<dim>1</dim>
					<dim>32</dim>
					<dim>40</dim>
					<dim>40</dim>
				</port>
			</input>
			<output>
				<port id="1" precision="FP32" names="321,input.69">
					<dim>1</dim>
					<dim>32</dim>
					<dim>40</dim>
					<dim>40</dim>
				</port>
			</output>
		</layer>
		<layer id="283" name="__module.model.23.cv3.2.1.1.act/aten::silu_/Swish_17/fq_output_0/input_low" type="Const" version="opset1">
			<data element_type="f32" shape="" offset="12520" size="4" />
			<output>
				<port id="0" precision="FP32" />
			</output>
		</layer>
		<layer id="284" name="__module.model.23.cv3.2.1.1.act/aten::silu_/Swish_17/fq_output_0/input_high" type="Const" version="opset1">
			<data element_type="f32" shape="" offset="282156" size="4" />
			<output>
				<port id="0" precision="FP32" />
			</output>
		</layer>
		<layer id="285" name="__module.model.23.cv3.2.1.1.act/aten::silu_/Swish_17/fq_output_0/output_low" type="Const" version="opset1">
			<data element_type="f32" shape="" offset="12520" size="4" />
			<output>
				<port id="0" precision="FP32" />
			</output>
		</layer>
		<layer id="286" name="__module.model.23.cv3.2.1.1.act/aten::silu_/Swish_17/fq_output_0/output_high" type="Const" version="opset1">
			<data element_type="f32" shape="" offset="282156" size="4" />
			<output>
				<port id="0" precision="FP32" />
			</output>
		</layer>
		<layer id="287" name="__module.model.23.cv3.2.1.1.act/aten::silu_/Swish_17/fq_output_0" type="FakeQuantize" version="opset1">
			<data levels="256" auto_broadcast="numpy" />
			<input>
				<port id="0" precision="FP32">
					<dim>1</dim>
					<dim>32</dim>
					<dim>40</dim>
					<dim>40</dim>
				</port>
				<port id="1" precision="FP32" />
				<port id="2" precision="FP32" />
				<port id="3" precision="FP32" />
				<port id="4" precision="FP32" />
			</input>
			<output>
				<port id="5" precision="FP32">
					<dim>1</dim>
					<dim>32</dim>
					<dim>40</dim>
					<dim>40</dim>
				</port>
			</output>
		</layer>
		<layer id="288" name="__module.model.6.m.0.m.1/aten::add/Add" type="Add" version="opset1">
			<data auto_broadcast="numpy" />
			<input>
				<port id="0" precision="FP32">
					<dim>1</dim>
					<dim>32</dim>
					<dim>40</dim>
					<dim>40</dim>
				</port>
				<port id="1" precision="FP32">
					<dim>1</dim>
					<dim>32</dim>
					<dim>40</dim>
					<dim>40</dim>
				</port>
			</input>
			<output>
				<port id="2" precision="FP32" names="323">
					<dim>1</dim>
					<dim>32</dim>
					<dim>40</dim>
					<dim>40</dim>
				</port>
			</output>
		</layer>
		<layer id="289" name="__module.model.6.m.0.m.1/aten::add/Add/fq_output_0/input_low" type="Const" version="opset1">
			<data element_type="f32" shape="" offset="282160" size="4" />
			<output>
				<port id="0" precision="FP32" />
			</output>
		</layer>
		<layer id="290" name="__module.model.6.m.0.m.1/aten::add/Add/fq_output_0/input_high" type="Const" version="opset1">
			<data element_type="f32" shape="" offset="282164" size="4" />
			<output>
				<port id="0" precision="FP32" />
			</output>
		</layer>
		<layer id="291" name="__module.model.6.m.0.m.1/aten::add/Add/fq_output_0/output_low" type="Const" version="opset1">
			<data element_type="f32" shape="" offset="282160" size="4" />
			<output>
				<port id="0" precision="FP32" />
			</output>
		</layer>
		<layer id="292" name="__module.model.6.m.0.m.1/aten::add/Add/fq_output_0/output_high" type="Const" version="opset1">
			<data element_type="f32" shape="" offset="282164" size="4" />
			<output>
				<port id="0" precision="FP32" />
			</output>
		</layer>
		<layer id="293" name="__module.model.6.m.0.m.1/aten::add/Add/fq_output_0" type="FakeQuantize" version="opset1">
			<data levels="256" auto_broadcast="numpy" />
			<input>
				<port id="0" precision="FP32">
					<dim>1</dim>
					<dim>32</dim>
					<dim>40</dim>
					<dim>40</dim>
				</port>
				<port id="1" precision="FP32" />
				<port id="2" precision="FP32" />
				<port id="3" precision="FP32" />
				<port id="4" precision="FP32" />
			</input>
			<output>
				<port id="5" precision="FP32">
					<dim>1</dim>
					<dim>32</dim>
					<dim>40</dim>
					<dim>40</dim>
				</port>
			</output>
		</layer>
		<layer id="294" name="Constant_542608" type="Const" version="opset1">
			<data element_type="i8" shape="32, 64, 1, 1" offset="282168" size="2048" />
			<output>
				<port id="0" precision="I8">
					<dim>32</dim>
					<dim>64</dim>
					<dim>1</dim>
					<dim>1</dim>
				</port>
			</output>
		</layer>
		<layer id="295" name="Convert_542609" type="Convert" version="opset1">
			<data destination_type="f32" />
			<input>
				<port id="0" precision="I8">
					<dim>32</dim>
					<dim>64</dim>
					<dim>1</dim>
					<dim>1</dim>
				</port>
			</input>
			<output>
				<port id="1" precision="FP32">
					<dim>32</dim>
					<dim>64</dim>
					<dim>1</dim>
					<dim>1</dim>
				</port>
			</output>
		</layer>
		<layer id="296" name="Constant_542610" type="Const" version="opset1">
			<data element_type="f32" shape="32, 1, 1, 1" offset="284216" size="128" />
			<output>
				<port id="0" precision="FP32">
					<dim>32</dim>
					<dim>1</dim>
					<dim>1</dim>
					<dim>1</dim>
				</port>
			</output>
		</layer>
		<layer id="297" name="__module.model.6.m.0.cv2.conv/aten::_convolution/Convolution/fq_weights_1" type="Multiply" version="opset1">
			<data auto_broadcast="numpy" />
			<input>
				<port id="0" precision="FP32">
					<dim>32</dim>
					<dim>64</dim>
					<dim>1</dim>
					<dim>1</dim>
				</port>
				<port id="1" precision="FP32">
					<dim>32</dim>
					<dim>1</dim>
					<dim>1</dim>
					<dim>1</dim>
				</port>
			</input>
			<output>
				<port id="2" precision="FP32">
					<dim>32</dim>
					<dim>64</dim>
					<dim>1</dim>
					<dim>1</dim>
				</port>
			</output>
		</layer>
		<layer id="298" name="__module.model.6.m.0.cv2.conv/aten::_convolution/Convolution" type="Convolution" version="opset1">
			<data strides="1, 1" dilations="1, 1" pads_begin="0, 0" pads_end="0, 0" auto_pad="explicit" />
			<input>
				<port id="0" precision="FP32">
					<dim>1</dim>
					<dim>64</dim>
					<dim>40</dim>
					<dim>40</dim>
				</port>
				<port id="1" precision="FP32">
					<dim>32</dim>
					<dim>64</dim>
					<dim>1</dim>
					<dim>1</dim>
				</port>
			</input>
			<output>
				<port id="2" precision="FP32">
					<dim>1</dim>
					<dim>32</dim>
					<dim>40</dim>
					<dim>40</dim>
				</port>
			</output>
		</layer>
		<layer id="299" name="__module.model.6.m.0.cv2.conv/aten::_convolution/Reshape_compressed" type="Const" version="opset1">
			<data element_type="f16" shape="1, 32, 1, 1" offset="284344" size="64" />
			<output>
				<port id="0" precision="FP16">
					<dim>1</dim>
					<dim>32</dim>
					<dim>1</dim>
					<dim>1</dim>
				</port>
			</output>
		</layer>
		<layer id="300" name="__module.model.6.m.0.cv2.conv/aten::_convolution/Reshape" type="Convert" version="opset1">
			<data destination_type="f32" />
			<rt_info>
				<attribute name="decompression" version="0" />
			</rt_info>
			<input>
				<port id="0" precision="FP16">
					<dim>1</dim>
					<dim>32</dim>
					<dim>1</dim>
					<dim>1</dim>
				</port>
			</input>
			<output>
				<port id="1" precision="FP32">
					<dim>1</dim>
					<dim>32</dim>
					<dim>1</dim>
					<dim>1</dim>
				</port>
			</output>
		</layer>
		<layer id="301" name="__module.model.6.m.0.cv2.conv/aten::_convolution/Add" type="Add" version="opset1">
			<data auto_broadcast="numpy" />
			<input>
				<port id="0" precision="FP32">
					<dim>1</dim>
					<dim>32</dim>
					<dim>40</dim>
					<dim>40</dim>
				</port>
				<port id="1" precision="FP32">
					<dim>1</dim>
					<dim>32</dim>
					<dim>1</dim>
					<dim>1</dim>
				</port>
			</input>
			<output>
				<port id="2" precision="FP32" names="331_1">
					<dim>1</dim>
					<dim>32</dim>
					<dim>40</dim>
					<dim>40</dim>
				</port>
			</output>
		</layer>
		<layer id="302" name="__module.model.23.cv3.2.1.1.act/aten::silu_/Swish_18" type="Swish" version="opset4">
			<input>
				<port id="0" precision="FP32">
					<dim>1</dim>
					<dim>32</dim>
					<dim>40</dim>
					<dim>40</dim>
				</port>
			</input>
			<output>
				<port id="1" precision="FP32" names="331,input.71">
					<dim>1</dim>
					<dim>32</dim>
					<dim>40</dim>
					<dim>40</dim>
				</port>
			</output>
		</layer>
		<layer id="303" name="__module.model.23.cv3.2.1.1.act/aten::silu_/Swish_18/fq_output_0/input_low" type="Const" version="opset1">
			<data element_type="f32" shape="" offset="282160" size="4" />
			<output>
				<port id="0" precision="FP32" />
			</output>
		</layer>
		<layer id="304" name="__module.model.23.cv3.2.1.1.act/aten::silu_/Swish_18/fq_output_0/input_high" type="Const" version="opset1">
			<data element_type="f32" shape="" offset="282164" size="4" />
			<output>
				<port id="0" precision="FP32" />
			</output>
		</layer>
		<layer id="305" name="__module.model.23.cv3.2.1.1.act/aten::silu_/Swish_18/fq_output_0/output_low" type="Const" version="opset1">
			<data element_type="f32" shape="" offset="282160" size="4" />
			<output>
				<port id="0" precision="FP32" />
			</output>
		</layer>
		<layer id="306" name="__module.model.23.cv3.2.1.1.act/aten::silu_/Swish_18/fq_output_0/output_high" type="Const" version="opset1">
			<data element_type="f32" shape="" offset="282164" size="4" />
			<output>
				<port id="0" precision="FP32" />
			</output>
		</layer>
		<layer id="307" name="__module.model.23.cv3.2.1.1.act/aten::silu_/Swish_18/fq_output_0" type="FakeQuantize" version="opset1">
			<data levels="256" auto_broadcast="numpy" />
			<input>
				<port id="0" precision="FP32">
					<dim>1</dim>
					<dim>32</dim>
					<dim>40</dim>
					<dim>40</dim>
				</port>
				<port id="1" precision="FP32" />
				<port id="2" precision="FP32" />
				<port id="3" precision="FP32" />
				<port id="4" precision="FP32" />
			</input>
			<output>
				<port id="5" precision="FP32">
					<dim>1</dim>
					<dim>32</dim>
					<dim>40</dim>
					<dim>40</dim>
				</port>
			</output>
		</layer>
		<layer id="308" name="__module.model.6.m.0/aten::cat/Concat" type="Concat" version="opset1">
			<data axis="1" />
			<input>
				<port id="0" precision="FP32">
					<dim>1</dim>
					<dim>32</dim>
					<dim>40</dim>
					<dim>40</dim>
				</port>
				<port id="1" precision="FP32">
					<dim>1</dim>
					<dim>32</dim>
					<dim>40</dim>
					<dim>40</dim>
				</port>
			</input>
			<output>
				<port id="2" precision="FP32" names="334,input.73">
					<dim>1</dim>
					<dim>64</dim>
					<dim>40</dim>
					<dim>40</dim>
				</port>
			</output>
		</layer>
		<layer id="309" name="Constant_542613" type="Const" version="opset1">
			<data element_type="i8" shape="64, 64, 1, 1" offset="284408" size="4096" />
			<output>
				<port id="0" precision="I8">
					<dim>64</dim>
					<dim>64</dim>
					<dim>1</dim>
					<dim>1</dim>
				</port>
			</output>
		</layer>
		<layer id="310" name="Convert_542614" type="Convert" version="opset1">
			<data destination_type="f32" />
			<input>
				<port id="0" precision="I8">
					<dim>64</dim>
					<dim>64</dim>
					<dim>1</dim>
					<dim>1</dim>
				</port>
			</input>
			<output>
				<port id="1" precision="FP32">
					<dim>64</dim>
					<dim>64</dim>
					<dim>1</dim>
					<dim>1</dim>
				</port>
			</output>
		</layer>
		<layer id="311" name="Constant_542615" type="Const" version="opset1">
			<data element_type="f32" shape="64, 1, 1, 1" offset="288504" size="256" />
			<output>
				<port id="0" precision="FP32">
					<dim>64</dim>
					<dim>1</dim>
					<dim>1</dim>
					<dim>1</dim>
				</port>
			</output>
		</layer>
		<layer id="312" name="__module.model.6.m.0.cv3.conv/aten::_convolution/Convolution/fq_weights_1" type="Multiply" version="opset1">
			<data auto_broadcast="numpy" />
			<input>
				<port id="0" precision="FP32">
					<dim>64</dim>
					<dim>64</dim>
					<dim>1</dim>
					<dim>1</dim>
				</port>
				<port id="1" precision="FP32">
					<dim>64</dim>
					<dim>1</dim>
					<dim>1</dim>
					<dim>1</dim>
				</port>
			</input>
			<output>
				<port id="2" precision="FP32">
					<dim>64</dim>
					<dim>64</dim>
					<dim>1</dim>
					<dim>1</dim>
				</port>
			</output>
		</layer>
		<layer id="313" name="__module.model.6.m.0.cv3.conv/aten::_convolution/Convolution" type="Convolution" version="opset1">
			<data strides="1, 1" dilations="1, 1" pads_begin="0, 0" pads_end="0, 0" auto_pad="explicit" />
			<input>
				<port id="0" precision="FP32">
					<dim>1</dim>
					<dim>64</dim>
					<dim>40</dim>
					<dim>40</dim>
				</port>
				<port id="1" precision="FP32">
					<dim>64</dim>
					<dim>64</dim>
					<dim>1</dim>
					<dim>1</dim>
				</port>
			</input>
			<output>
				<port id="2" precision="FP32">
					<dim>1</dim>
					<dim>64</dim>
					<dim>40</dim>
					<dim>40</dim>
				</port>
			</output>
		</layer>
		<layer id="314" name="__module.model.6.m.0.cv3.conv/aten::_convolution/Reshape_compressed" type="Const" version="opset1">
			<data element_type="f16" shape="1, 64, 1, 1" offset="288760" size="128" />
			<output>
				<port id="0" precision="FP16">
					<dim>1</dim>
					<dim>64</dim>
					<dim>1</dim>
					<dim>1</dim>
				</port>
			</output>
		</layer>
		<layer id="315" name="__module.model.6.m.0.cv3.conv/aten::_convolution/Reshape" type="Convert" version="opset1">
			<data destination_type="f32" />
			<rt_info>
				<attribute name="decompression" version="0" />
			</rt_info>
			<input>
				<port id="0" precision="FP16">
					<dim>1</dim>
					<dim>64</dim>
					<dim>1</dim>
					<dim>1</dim>
				</port>
			</input>
			<output>
				<port id="1" precision="FP32">
					<dim>1</dim>
					<dim>64</dim>
					<dim>1</dim>
					<dim>1</dim>
				</port>
			</output>
		</layer>
		<layer id="316" name="__module.model.6.m.0.cv3.conv/aten::_convolution/Add" type="Add" version="opset1">
			<data auto_broadcast="numpy" />
			<input>
				<port id="0" precision="FP32">
					<dim>1</dim>
					<dim>64</dim>
					<dim>40</dim>
					<dim>40</dim>
				</port>
				<port id="1" precision="FP32">
					<dim>1</dim>
					<dim>64</dim>
					<dim>1</dim>
					<dim>1</dim>
				</port>
			</input>
			<output>
				<port id="2" precision="FP32" names="342_1">
					<dim>1</dim>
					<dim>64</dim>
					<dim>40</dim>
					<dim>40</dim>
				</port>
			</output>
		</layer>
		<layer id="317" name="__module.model.23.cv3.2.1.1.act/aten::silu_/Swish_19" type="Swish" version="opset4">
			<input>
				<port id="0" precision="FP32">
					<dim>1</dim>
					<dim>64</dim>
					<dim>40</dim>
					<dim>40</dim>
				</port>
			</input>
			<output>
				<port id="1" precision="FP32" names="342,input.75">
					<dim>1</dim>
					<dim>64</dim>
					<dim>40</dim>
					<dim>40</dim>
				</port>
			</output>
		</layer>
		<layer id="318" name="__module.model.23.cv3.2.1.1.act/aten::silu_/Swish_19/fq_output_0/input_low" type="Const" version="opset1">
			<data element_type="f32" shape="" offset="12520" size="4" />
			<output>
				<port id="0" precision="FP32" />
			</output>
		</layer>
		<layer id="319" name="__module.model.23.cv3.2.1.1.act/aten::silu_/Swish_19/fq_output_0/input_high" type="Const" version="opset1">
			<data element_type="f32" shape="" offset="63792" size="4" />
			<output>
				<port id="0" precision="FP32" />
			</output>
		</layer>
		<layer id="320" name="__module.model.23.cv3.2.1.1.act/aten::silu_/Swish_19/fq_output_0/output_low" type="Const" version="opset1">
			<data element_type="f32" shape="" offset="12520" size="4" />
			<output>
				<port id="0" precision="FP32" />
			</output>
		</layer>
		<layer id="321" name="__module.model.23.cv3.2.1.1.act/aten::silu_/Swish_19/fq_output_0/output_high" type="Const" version="opset1">
			<data element_type="f32" shape="" offset="63792" size="4" />
			<output>
				<port id="0" precision="FP32" />
			</output>
		</layer>
		<layer id="322" name="__module.model.23.cv3.2.1.1.act/aten::silu_/Swish_19/fq_output_0" type="FakeQuantize" version="opset1">
			<data levels="256" auto_broadcast="numpy" />
			<input>
				<port id="0" precision="FP32">
					<dim>1</dim>
					<dim>64</dim>
					<dim>40</dim>
					<dim>40</dim>
				</port>
				<port id="1" precision="FP32" />
				<port id="2" precision="FP32" />
				<port id="3" precision="FP32" />
				<port id="4" precision="FP32" />
			</input>
			<output>
				<port id="5" precision="FP32">
					<dim>1</dim>
					<dim>64</dim>
					<dim>40</dim>
					<dim>40</dim>
				</port>
			</output>
		</layer>
		<layer id="323" name="__module.model.6/aten::cat/Concat" type="Concat" version="opset1">
			<data axis="1" />
			<input>
				<port id="0" precision="FP32">
					<dim>1</dim>
					<dim>64</dim>
					<dim>40</dim>
					<dim>40</dim>
				</port>
				<port id="1" precision="FP32">
					<dim>1</dim>
					<dim>64</dim>
					<dim>40</dim>
					<dim>40</dim>
				</port>
				<port id="2" precision="FP32">
					<dim>1</dim>
					<dim>64</dim>
					<dim>40</dim>
					<dim>40</dim>
				</port>
			</input>
			<output>
				<port id="3" precision="FP32" names="345,input.77">
					<dim>1</dim>
					<dim>192</dim>
					<dim>40</dim>
					<dim>40</dim>
				</port>
			</output>
		</layer>
		<layer id="324" name="Constant_542618" type="Const" version="opset1">
			<data element_type="i8" shape="128, 192, 1, 1" offset="288888" size="24576" />
			<output>
				<port id="0" precision="I8">
					<dim>128</dim>
					<dim>192</dim>
					<dim>1</dim>
					<dim>1</dim>
				</port>
			</output>
		</layer>
		<layer id="325" name="Convert_542619" type="Convert" version="opset1">
			<data destination_type="f32" />
			<input>
				<port id="0" precision="I8">
					<dim>128</dim>
					<dim>192</dim>
					<dim>1</dim>
					<dim>1</dim>
				</port>
			</input>
			<output>
				<port id="1" precision="FP32">
					<dim>128</dim>
					<dim>192</dim>
					<dim>1</dim>
					<dim>1</dim>
				</port>
			</output>
		</layer>
		<layer id="326" name="Constant_542620" type="Const" version="opset1">
			<data element_type="f32" shape="128, 1, 1, 1" offset="313464" size="512" />
			<output>
				<port id="0" precision="FP32">
					<dim>128</dim>
					<dim>1</dim>
					<dim>1</dim>
					<dim>1</dim>
				</port>
			</output>
		</layer>
		<layer id="327" name="__module.model.6.cv2.conv/aten::_convolution/Convolution/fq_weights_1" type="Multiply" version="opset1">
			<data auto_broadcast="numpy" />
			<input>
				<port id="0" precision="FP32">
					<dim>128</dim>
					<dim>192</dim>
					<dim>1</dim>
					<dim>1</dim>
				</port>
				<port id="1" precision="FP32">
					<dim>128</dim>
					<dim>1</dim>
					<dim>1</dim>
					<dim>1</dim>
				</port>
			</input>
			<output>
				<port id="2" precision="FP32">
					<dim>128</dim>
					<dim>192</dim>
					<dim>1</dim>
					<dim>1</dim>
				</port>
			</output>
		</layer>
		<layer id="328" name="__module.model.6.cv2.conv/aten::_convolution/Convolution" type="Convolution" version="opset1">
			<data strides="1, 1" dilations="1, 1" pads_begin="0, 0" pads_end="0, 0" auto_pad="explicit" />
			<input>
				<port id="0" precision="FP32">
					<dim>1</dim>
					<dim>192</dim>
					<dim>40</dim>
					<dim>40</dim>
				</port>
				<port id="1" precision="FP32">
					<dim>128</dim>
					<dim>192</dim>
					<dim>1</dim>
					<dim>1</dim>
				</port>
			</input>
			<output>
				<port id="2" precision="FP32">
					<dim>1</dim>
					<dim>128</dim>
					<dim>40</dim>
					<dim>40</dim>
				</port>
			</output>
		</layer>
		<layer id="329" name="__module.model.6.cv2.conv/aten::_convolution/Reshape_compressed" type="Const" version="opset1">
			<data element_type="f16" shape="1, 128, 1, 1" offset="313976" size="256" />
			<output>
				<port id="0" precision="FP16">
					<dim>1</dim>
					<dim>128</dim>
					<dim>1</dim>
					<dim>1</dim>
				</port>
			</output>
		</layer>
		<layer id="330" name="__module.model.6.cv2.conv/aten::_convolution/Reshape" type="Convert" version="opset1">
			<data destination_type="f32" />
			<rt_info>
				<attribute name="decompression" version="0" />
			</rt_info>
			<input>
				<port id="0" precision="FP16">
					<dim>1</dim>
					<dim>128</dim>
					<dim>1</dim>
					<dim>1</dim>
				</port>
			</input>
			<output>
				<port id="1" precision="FP32">
					<dim>1</dim>
					<dim>128</dim>
					<dim>1</dim>
					<dim>1</dim>
				</port>
			</output>
		</layer>
		<layer id="331" name="__module.model.6.cv2.conv/aten::_convolution/Add" type="Add" version="opset1">
			<data auto_broadcast="numpy" />
			<input>
				<port id="0" precision="FP32">
					<dim>1</dim>
					<dim>128</dim>
					<dim>40</dim>
					<dim>40</dim>
				</port>
				<port id="1" precision="FP32">
					<dim>1</dim>
					<dim>128</dim>
					<dim>1</dim>
					<dim>1</dim>
				</port>
			</input>
			<output>
				<port id="2" precision="FP32" names="353_1">
					<dim>1</dim>
					<dim>128</dim>
					<dim>40</dim>
					<dim>40</dim>
				</port>
			</output>
		</layer>
		<layer id="332" name="__module.model.23.cv3.2.1.1.act/aten::silu_/Swish_20" type="Swish" version="opset4">
			<input>
				<port id="0" precision="FP32">
					<dim>1</dim>
					<dim>128</dim>
					<dim>40</dim>
					<dim>40</dim>
				</port>
			</input>
			<output>
				<port id="1" precision="FP32" names="353,input.79">
					<dim>1</dim>
					<dim>128</dim>
					<dim>40</dim>
					<dim>40</dim>
				</port>
			</output>
		</layer>
		<layer id="333" name="__module.model.23.cv3.2.1.1.act/aten::silu_/Swish_20/fq_output_0/input_low" type="Const" version="opset1">
			<data element_type="f32" shape="" offset="314232" size="4" />
			<output>
				<port id="0" precision="FP32" />
			</output>
		</layer>
		<layer id="334" name="__module.model.23.cv3.2.1.1.act/aten::silu_/Swish_20/fq_output_0/input_high" type="Const" version="opset1">
			<data element_type="f32" shape="" offset="314236" size="4" />
			<output>
				<port id="0" precision="FP32" />
			</output>
		</layer>
		<layer id="335" name="__module.model.23.cv3.2.1.1.act/aten::silu_/Swish_20/fq_output_0/output_low" type="Const" version="opset1">
			<data element_type="f32" shape="" offset="314232" size="4" />
			<output>
				<port id="0" precision="FP32" />
			</output>
		</layer>
		<layer id="336" name="__module.model.23.cv3.2.1.1.act/aten::silu_/Swish_20/fq_output_0/output_high" type="Const" version="opset1">
			<data element_type="f32" shape="" offset="314236" size="4" />
			<output>
				<port id="0" precision="FP32" />
			</output>
		</layer>
		<layer id="337" name="__module.model.23.cv3.2.1.1.act/aten::silu_/Swish_20/fq_output_0" type="FakeQuantize" version="opset1">
			<data levels="256" auto_broadcast="numpy" />
			<input>
				<port id="0" precision="FP32">
					<dim>1</dim>
					<dim>128</dim>
					<dim>40</dim>
					<dim>40</dim>
				</port>
				<port id="1" precision="FP32" />
				<port id="2" precision="FP32" />
				<port id="3" precision="FP32" />
				<port id="4" precision="FP32" />
			</input>
			<output>
				<port id="5" precision="FP32">
					<dim>1</dim>
					<dim>128</dim>
					<dim>40</dim>
					<dim>40</dim>
				</port>
			</output>
		</layer>
		<layer id="338" name="Constant_542623" type="Const" version="opset1">
			<data element_type="i8" shape="256, 128, 3, 3" offset="314240" size="294912" />
			<output>
				<port id="0" precision="I8">
					<dim>256</dim>
					<dim>128</dim>
					<dim>3</dim>
					<dim>3</dim>
				</port>
			</output>
		</layer>
		<layer id="339" name="Convert_542624" type="Convert" version="opset1">
			<data destination_type="f32" />
			<input>
				<port id="0" precision="I8">
					<dim>256</dim>
					<dim>128</dim>
					<dim>3</dim>
					<dim>3</dim>
				</port>
			</input>
			<output>
				<port id="1" precision="FP32">
					<dim>256</dim>
					<dim>128</dim>
					<dim>3</dim>
					<dim>3</dim>
				</port>
			</output>
		</layer>
		<layer id="340" name="Constant_542625" type="Const" version="opset1">
			<data element_type="f32" shape="256, 1, 1, 1" offset="609152" size="1024" />
			<output>
				<port id="0" precision="FP32">
					<dim>256</dim>
					<dim>1</dim>
					<dim>1</dim>
					<dim>1</dim>
				</port>
			</output>
		</layer>
		<layer id="341" name="__module.model.7.conv/aten::_convolution/Convolution/fq_weights_1" type="Multiply" version="opset1">
			<data auto_broadcast="numpy" />
			<input>
				<port id="0" precision="FP32">
					<dim>256</dim>
					<dim>128</dim>
					<dim>3</dim>
					<dim>3</dim>
				</port>
				<port id="1" precision="FP32">
					<dim>256</dim>
					<dim>1</dim>
					<dim>1</dim>
					<dim>1</dim>
				</port>
			</input>
			<output>
				<port id="2" precision="FP32">
					<dim>256</dim>
					<dim>128</dim>
					<dim>3</dim>
					<dim>3</dim>
				</port>
			</output>
		</layer>
		<layer id="342" name="__module.model.7.conv/aten::_convolution/Convolution" type="Convolution" version="opset1">
			<data strides="2, 2" dilations="1, 1" pads_begin="1, 1" pads_end="1, 1" auto_pad="explicit" />
			<input>
				<port id="0" precision="FP32">
					<dim>1</dim>
					<dim>128</dim>
					<dim>40</dim>
					<dim>40</dim>
				</port>
				<port id="1" precision="FP32">
					<dim>256</dim>
					<dim>128</dim>
					<dim>3</dim>
					<dim>3</dim>
				</port>
			</input>
			<output>
				<port id="2" precision="FP32">
					<dim>1</dim>
					<dim>256</dim>
					<dim>20</dim>
					<dim>20</dim>
				</port>
			</output>
		</layer>
		<layer id="343" name="__module.model.7.conv/aten::_convolution/Reshape_compressed" type="Const" version="opset1">
			<data element_type="f16" shape="1, 256, 1, 1" offset="610176" size="512" />
			<output>
				<port id="0" precision="FP16">
					<dim>1</dim>
					<dim>256</dim>
					<dim>1</dim>
					<dim>1</dim>
				</port>
			</output>
		</layer>
		<layer id="344" name="__module.model.7.conv/aten::_convolution/Reshape" type="Convert" version="opset1">
			<data destination_type="f32" />
			<rt_info>
				<attribute name="decompression" version="0" />
			</rt_info>
			<input>
				<port id="0" precision="FP16">
					<dim>1</dim>
					<dim>256</dim>
					<dim>1</dim>
					<dim>1</dim>
				</port>
			</input>
			<output>
				<port id="1" precision="FP32">
					<dim>1</dim>
					<dim>256</dim>
					<dim>1</dim>
					<dim>1</dim>
				</port>
			</output>
		</layer>
		<layer id="345" name="__module.model.7.conv/aten::_convolution/Add" type="Add" version="opset1">
			<data auto_broadcast="numpy" />
			<input>
				<port id="0" precision="FP32">
					<dim>1</dim>
					<dim>256</dim>
					<dim>20</dim>
					<dim>20</dim>
				</port>
				<port id="1" precision="FP32">
					<dim>1</dim>
					<dim>256</dim>
					<dim>1</dim>
					<dim>1</dim>
				</port>
			</input>
			<output>
				<port id="2" precision="FP32" names="367_1">
					<dim>1</dim>
					<dim>256</dim>
					<dim>20</dim>
					<dim>20</dim>
				</port>
			</output>
		</layer>
		<layer id="346" name="__module.model.23.cv3.2.1.1.act/aten::silu_/Swish_21" type="Swish" version="opset4">
			<input>
				<port id="0" precision="FP32">
					<dim>1</dim>
					<dim>256</dim>
					<dim>20</dim>
					<dim>20</dim>
				</port>
			</input>
			<output>
				<port id="1" precision="FP32" names="367,input.83">
					<dim>1</dim>
					<dim>256</dim>
					<dim>20</dim>
					<dim>20</dim>
				</port>
			</output>
		</layer>
		<layer id="347" name="__module.model.23.cv3.2.1.1.act/aten::silu_/Swish_21/fq_output_0/input_low" type="Const" version="opset1">
			<data element_type="f32" shape="" offset="12520" size="4" />
			<output>
				<port id="0" precision="FP32" />
			</output>
		</layer>
		<layer id="348" name="__module.model.23.cv3.2.1.1.act/aten::silu_/Swish_21/fq_output_0/input_high" type="Const" version="opset1">
			<data element_type="f32" shape="" offset="610688" size="4" />
			<output>
				<port id="0" precision="FP32" />
			</output>
		</layer>
		<layer id="349" name="__module.model.23.cv3.2.1.1.act/aten::silu_/Swish_21/fq_output_0/output_low" type="Const" version="opset1">
			<data element_type="f32" shape="" offset="12520" size="4" />
			<output>
				<port id="0" precision="FP32" />
			</output>
		</layer>
		<layer id="350" name="__module.model.23.cv3.2.1.1.act/aten::silu_/Swish_21/fq_output_0/output_high" type="Const" version="opset1">
			<data element_type="f32" shape="" offset="610688" size="4" />
			<output>
				<port id="0" precision="FP32" />
			</output>
		</layer>
		<layer id="351" name="__module.model.23.cv3.2.1.1.act/aten::silu_/Swish_21/fq_output_0" type="FakeQuantize" version="opset1">
			<data levels="256" auto_broadcast="numpy" />
			<input>
				<port id="0" precision="FP32">
					<dim>1</dim>
					<dim>256</dim>
					<dim>20</dim>
					<dim>20</dim>
				</port>
				<port id="1" precision="FP32" />
				<port id="2" precision="FP32" />
				<port id="3" precision="FP32" />
				<port id="4" precision="FP32" />
			</input>
			<output>
				<port id="5" precision="FP32">
					<dim>1</dim>
					<dim>256</dim>
					<dim>20</dim>
					<dim>20</dim>
				</port>
			</output>
		</layer>
		<layer id="352" name="Constant_542628" type="Const" version="opset1">
			<data element_type="i8" shape="256, 256, 1, 1" offset="610692" size="65536" />
			<output>
				<port id="0" precision="I8">
					<dim>256</dim>
					<dim>256</dim>
					<dim>1</dim>
					<dim>1</dim>
				</port>
			</output>
		</layer>
		<layer id="353" name="Convert_542629" type="Convert" version="opset1">
			<data destination_type="f32" />
			<input>
				<port id="0" precision="I8">
					<dim>256</dim>
					<dim>256</dim>
					<dim>1</dim>
					<dim>1</dim>
				</port>
			</input>
			<output>
				<port id="1" precision="FP32">
					<dim>256</dim>
					<dim>256</dim>
					<dim>1</dim>
					<dim>1</dim>
				</port>
			</output>
		</layer>
		<layer id="354" name="Constant_542630" type="Const" version="opset1">
			<data element_type="f32" shape="256, 1, 1, 1" offset="676228" size="1024" />
			<output>
				<port id="0" precision="FP32">
					<dim>256</dim>
					<dim>1</dim>
					<dim>1</dim>
					<dim>1</dim>
				</port>
			</output>
		</layer>
		<layer id="355" name="__module.model.8.cv1.conv/aten::_convolution/Convolution/fq_weights_1" type="Multiply" version="opset1">
			<data auto_broadcast="numpy" />
			<input>
				<port id="0" precision="FP32">
					<dim>256</dim>
					<dim>256</dim>
					<dim>1</dim>
					<dim>1</dim>
				</port>
				<port id="1" precision="FP32">
					<dim>256</dim>
					<dim>1</dim>
					<dim>1</dim>
					<dim>1</dim>
				</port>
			</input>
			<output>
				<port id="2" precision="FP32">
					<dim>256</dim>
					<dim>256</dim>
					<dim>1</dim>
					<dim>1</dim>
				</port>
			</output>
		</layer>
		<layer id="356" name="__module.model.8.cv1.conv/aten::_convolution/Convolution" type="Convolution" version="opset1">
			<data strides="1, 1" dilations="1, 1" pads_begin="0, 0" pads_end="0, 0" auto_pad="explicit" />
			<input>
				<port id="0" precision="FP32">
					<dim>1</dim>
					<dim>256</dim>
					<dim>20</dim>
					<dim>20</dim>
				</port>
				<port id="1" precision="FP32">
					<dim>256</dim>
					<dim>256</dim>
					<dim>1</dim>
					<dim>1</dim>
				</port>
			</input>
			<output>
				<port id="2" precision="FP32">
					<dim>1</dim>
					<dim>256</dim>
					<dim>20</dim>
					<dim>20</dim>
				</port>
			</output>
		</layer>
		<layer id="357" name="__module.model.8.cv1.conv/aten::_convolution/Reshape_compressed" type="Const" version="opset1">
			<data element_type="f16" shape="1, 256, 1, 1" offset="677252" size="512" />
			<output>
				<port id="0" precision="FP16">
					<dim>1</dim>
					<dim>256</dim>
					<dim>1</dim>
					<dim>1</dim>
				</port>
			</output>
		</layer>
		<layer id="358" name="__module.model.8.cv1.conv/aten::_convolution/Reshape" type="Convert" version="opset1">
			<data destination_type="f32" />
			<rt_info>
				<attribute name="decompression" version="0" />
			</rt_info>
			<input>
				<port id="0" precision="FP16">
					<dim>1</dim>
					<dim>256</dim>
					<dim>1</dim>
					<dim>1</dim>
				</port>
			</input>
			<output>
				<port id="1" precision="FP32">
					<dim>1</dim>
					<dim>256</dim>
					<dim>1</dim>
					<dim>1</dim>
				</port>
			</output>
		</layer>
		<layer id="359" name="__module.model.8.cv1.conv/aten::_convolution/Add" type="Add" version="opset1">
			<data auto_broadcast="numpy" />
			<input>
				<port id="0" precision="FP32">
					<dim>1</dim>
					<dim>256</dim>
					<dim>20</dim>
					<dim>20</dim>
				</port>
				<port id="1" precision="FP32">
					<dim>1</dim>
					<dim>256</dim>
					<dim>1</dim>
					<dim>1</dim>
				</port>
			</input>
			<output>
				<port id="2" precision="FP32" names="385_1">
					<dim>1</dim>
					<dim>256</dim>
					<dim>20</dim>
					<dim>20</dim>
				</port>
			</output>
		</layer>
		<layer id="360" name="__module.model.23.cv3.2.1.1.act/aten::silu_/Swish_22" type="Swish" version="opset4">
			<input>
				<port id="0" precision="FP32">
					<dim>1</dim>
					<dim>256</dim>
					<dim>20</dim>
					<dim>20</dim>
				</port>
			</input>
			<output>
				<port id="1" precision="FP32" names="385,input.87">
					<dim>1</dim>
					<dim>256</dim>
					<dim>20</dim>
					<dim>20</dim>
				</port>
			</output>
		</layer>
		<layer id="361" name="__module.model.23.cv3.2.1.1.act/aten::silu_/Swish_22/fq_output_0/input_low" type="Const" version="opset1">
			<data element_type="f32" shape="" offset="677764" size="4" />
			<output>
				<port id="0" precision="FP32" />
			</output>
		</layer>
		<layer id="362" name="__module.model.23.cv3.2.1.1.act/aten::silu_/Swish_22/fq_output_0/input_high" type="Const" version="opset1">
			<data element_type="f32" shape="" offset="677768" size="4" />
			<output>
				<port id="0" precision="FP32" />
			</output>
		</layer>
…
		<edge from-layer="908" from-port="1" to-layer="913" to-port="0" />
		<edge from-layer="909" from-port="0" to-layer="913" to-port="1" />
		<edge from-layer="910" from-port="0" to-layer="913" to-port="2" />
		<edge from-layer="911" from-port="0" to-layer="913" to-port="3" />
		<edge from-layer="912" from-port="0" to-layer="913" to-port="4" />
		<edge from-layer="913" from-port="5" to-layer="918" to-port="0" />
		<edge from-layer="914" from-port="0" to-layer="915" to-port="0" />
		<edge from-layer="915" from-port="1" to-layer="917" to-port="0" />
		<edge from-layer="916" from-port="0" to-layer="917" to-port="1" />
		<edge from-layer="917" from-port="2" to-layer="918" to-port="1" />
		<edge from-layer="918" from-port="2" to-layer="921" to-port="0" />
		<edge from-layer="919" from-port="0" to-layer="920" to-port="0" />
		<edge from-layer="920" from-port="1" to-layer="921" to-port="1" />
		<edge from-layer="921" from-port="2" to-layer="922" to-port="1" />
		<edge from-layer="922" from-port="2" to-layer="923" to-port="0" />
		<edge from-layer="922" from-port="2" to-layer="1469" to-port="0" />
		<edge from-layer="923" from-port="1" to-layer="926" to-port="0" />
		<edge from-layer="923" from-port="1" to-layer="937" to-port="0" />
		<edge from-layer="924" from-port="0" to-layer="926" to-port="1" />
		<edge from-layer="925" from-port="0" to-layer="926" to-port="2" />
		<edge from-layer="926" from-port="3" to-layer="928" to-port="1" />
		<edge from-layer="926" from-port="3" to-layer="1513" to-port="0" />
		<edge from-layer="927" from-port="0" to-layer="928" to-port="2" />
		<edge from-layer="928" from-port="3" to-layer="931" to-port="0" />
		<edge from-layer="929" from-port="0" to-layer="930" to-port="0" />
		<edge from-layer="930" from-port="1" to-layer="931" to-port="1" />
		<edge from-layer="931" from-port="2" to-layer="933" to-port="0" />
		<edge from-layer="931" from-port="2" to-layer="944" to-port="0" />
		<edge from-layer="932" from-port="0" to-layer="933" to-port="1" />
		<edge from-layer="933" from-port="2" to-layer="946" to-port="0" />
		<edge from-layer="934" from-port="0" to-layer="939" to-port="0" />
		<edge from-layer="935" from-port="0" to-layer="937" to-port="1" />
		<edge from-layer="936" from-port="0" to-layer="937" to-port="2" />
		<edge from-layer="937" from-port="3" to-layer="1511" to-port="0" />
		<edge from-layer="937" from-port="3" to-layer="939" to-port="1" />
		<edge from-layer="938" from-port="0" to-layer="939" to-port="2" />
		<edge from-layer="939" from-port="3" to-layer="942" to-port="0" />
		<edge from-layer="940" from-port="0" to-layer="941" to-port="0" />
		<edge from-layer="941" from-port="1" to-layer="942" to-port="1" />
		<edge from-layer="942" from-port="2" to-layer="950" to-port="0" />
		<edge from-layer="942" from-port="2" to-layer="943" to-port="0" />
		<edge from-layer="943" from-port="1" to-layer="945" to-port="0" />
		<edge from-layer="944" from-port="1" to-layer="945" to-port="1" />
		<edge from-layer="945" from-port="2" to-layer="946" to-port="1" />
		<edge from-layer="945" from-port="2" to-layer="951" to-port="1" />
		<edge from-layer="946" from-port="2" to-layer="948" to-port="0" />
		<edge from-layer="947" from-port="0" to-layer="952" to-port="1" />
		<edge from-layer="947" from-port="0" to-layer="1455" to-port="1" />
		<edge from-layer="947" from-port="0" to-layer="1459" to-port="1" />
		<edge from-layer="947" from-port="0" to-layer="1167" to-port="1" />
		<edge from-layer="947" from-port="0" to-layer="1163" to-port="1" />
		<edge from-layer="947" from-port="0" to-layer="948" to-port="1" />
		<edge from-layer="948" from-port="2" to-layer="953" to-port="0" />
		<edge from-layer="949" from-port="0" to-layer="950" to-port="1" />
		<edge from-layer="950" from-port="2" to-layer="951" to-port="0" />
		<edge from-layer="951" from-port="2" to-layer="952" to-port="0" />
		<edge from-layer="952" from-port="2" to-layer="953" to-port="1" />
		<edge from-layer="953" from-port="2" to-layer="955" to-port="0" />
		<edge from-layer="954" from-port="0" to-layer="955" to-port="1" />
		<edge from-layer="955" from-port="2" to-layer="1463" to-port="0" />
		<edge from-layer="956" from-port="0" to-layer="1144" to-port="0" />
		<edge from-layer="957" from-port="0" to-layer="958" to-port="0" />
		<edge from-layer="958" from-port="1" to-layer="960" to-port="0" />
		<edge from-layer="959" from-port="0" to-layer="960" to-port="1" />
		<edge from-layer="960" from-port="2" to-layer="961" to-port="1" />
		<edge from-layer="961" from-port="2" to-layer="964" to-port="0" />
		<edge from-layer="962" from-port="0" to-layer="963" to-port="0" />
		<edge from-layer="963" from-port="1" to-layer="964" to-port="1" />
		<edge from-layer="964" from-port="2" to-layer="965" to-port="0" />
		<edge from-layer="965" from-port="1" to-layer="970" to-port="0" />
		<edge from-layer="966" from-port="0" to-layer="970" to-port="1" />
		<edge from-layer="967" from-port="0" to-layer="970" to-port="2" />
		<edge from-layer="968" from-port="0" to-layer="970" to-port="3" />
		<edge from-layer="969" from-port="0" to-layer="970" to-port="4" />
		<edge from-layer="970" from-port="5" to-layer="971" to-port="0" />
		<edge from-layer="971" from-port="2" to-layer="976" to-port="0" />
		<edge from-layer="972" from-port="0" to-layer="973" to-port="0" />
		<edge from-layer="973" from-port="1" to-layer="975" to-port="0" />
		<edge from-layer="974" from-port="0" to-layer="975" to-port="1" />
		<edge from-layer="975" from-port="2" to-layer="976" to-port="1" />
		<edge from-layer="976" from-port="2" to-layer="979" to-port="0" />
		<edge from-layer="977" from-port="0" to-layer="978" to-port="0" />
		<edge from-layer="978" from-port="1" to-layer="979" to-port="1" />
		<edge from-layer="979" from-port="2" to-layer="980" to-port="0" />
		<edge from-layer="980" from-port="1" to-layer="985" to-port="0" />
		<edge from-layer="981" from-port="0" to-layer="985" to-port="1" />
		<edge from-layer="982" from-port="0" to-layer="985" to-port="2" />
		<edge from-layer="983" from-port="0" to-layer="985" to-port="3" />
		<edge from-layer="984" from-port="0" to-layer="985" to-port="4" />
		<edge from-layer="985" from-port="5" to-layer="988" to-port="0" />
		<edge from-layer="986" from-port="0" to-layer="988" to-port="1" />
		<edge from-layer="987" from-port="0" to-layer="988" to-port="2" />
		<edge from-layer="988" from-port="4" to-layer="993" to-port="0" />
		<edge from-layer="988" from-port="4" to-layer="1023" to-port="1" />
		<edge from-layer="988" from-port="3" to-layer="1023" to-port="0" />
		<edge from-layer="988" from-port="4" to-layer="1017" to-port="0" />
		<edge from-layer="989" from-port="0" to-layer="990" to-port="0" />
		<edge from-layer="990" from-port="1" to-layer="992" to-port="0" />
		<edge from-layer="991" from-port="0" to-layer="992" to-port="1" />
		<edge from-layer="992" from-port="2" to-layer="993" to-port="1" />
		<edge from-layer="993" from-port="2" to-layer="996" to-port="0" />
		<edge from-layer="994" from-port="0" to-layer="995" to-port="0" />
		<edge from-layer="995" from-port="1" to-layer="996" to-port="1" />
		<edge from-layer="996" from-port="2" to-layer="997" to-port="0" />
		<edge from-layer="997" from-port="1" to-layer="1002" to-port="0" />
		<edge from-layer="998" from-port="0" to-layer="1002" to-port="1" />
		<edge from-layer="999" from-port="0" to-layer="1002" to-port="2" />
		<edge from-layer="1000" from-port="0" to-layer="1002" to-port="3" />
		<edge from-layer="1001" from-port="0" to-layer="1002" to-port="4" />
		<edge from-layer="1002" from-port="5" to-layer="1007" to-port="0" />
		<edge from-layer="1003" from-port="0" to-layer="1004" to-port="0" />
		<edge from-layer="1004" from-port="1" to-layer="1006" to-port="0" />
		<edge from-layer="1005" from-port="0" to-layer="1006" to-port="1" />
		<edge from-layer="1006" from-port="2" to-layer="1007" to-port="1" />
		<edge from-layer="1007" from-port="2" to-layer="1010" to-port="0" />
		<edge from-layer="1008" from-port="0" to-layer="1009" to-port="0" />
		<edge from-layer="1009" from-port="1" to-layer="1010" to-port="1" />
		<edge from-layer="1010" from-port="2" to-layer="1011" to-port="0" />
		<edge from-layer="1011" from-port="1" to-layer="1016" to-port="0" />
		<edge from-layer="1012" from-port="0" to-layer="1016" to-port="1" />
		<edge from-layer="1013" from-port="0" to-layer="1016" to-port="2" />
		<edge from-layer="1014" from-port="0" to-layer="1016" to-port="3" />
		<edge from-layer="1015" from-port="0" to-layer="1016" to-port="4" />
		<edge from-layer="1016" from-port="5" to-layer="1017" to-port="1" />
		<edge from-layer="1017" from-port="2" to-layer="1022" to-port="0" />
		<edge from-layer="1018" from-port="0" to-layer="1022" to-port="1" />
		<edge from-layer="1019" from-port="0" to-layer="1022" to-port="2" />
		<edge from-layer="1020" from-port="0" to-layer="1022" to-port="3" />
		<edge from-layer="1021" from-port="0" to-layer="1022" to-port="4" />
		<edge from-layer="1022" from-port="5" to-layer="1023" to-port="2" />
		<edge from-layer="1023" from-port="3" to-layer="1028" to-port="0" />
		<edge from-layer="1024" from-port="0" to-layer="1025" to-port="0" />
		<edge from-layer="1025" from-port="1" to-layer="1027" to-port="0" />
		<edge from-layer="1026" from-port="0" to-layer="1027" to-port="1" />
		<edge from-layer="1027" from-port="2" to-layer="1028" to-port="1" />
		<edge from-layer="1028" from-port="2" to-layer="1031" to-port="0" />
		<edge from-layer="1029" from-port="0" to-layer="1030" to-port="0" />
		<edge from-layer="1030" from-port="1" to-layer="1031" to-port="1" />
		<edge from-layer="1031" from-port="2" to-layer="1032" to-port="0" />
		<edge from-layer="1032" from-port="1" to-layer="1037" to-port="0" />
		<edge from-layer="1033" from-port="0" to-layer="1037" to-port="1" />
		<edge from-layer="1034" from-port="0" to-layer="1037" to-port="2" />
		<edge from-layer="1035" from-port="0" to-layer="1037" to-port="3" />
		<edge from-layer="1036" from-port="0" to-layer="1037" to-port="4" />
		<edge from-layer="1037" from-port="5" to-layer="1078" to-port="0" />
		<edge from-layer="1037" from-port="5" to-layer="1042" to-port="0" />
		<edge from-layer="1037" from-port="5" to-layer="1176" to-port="0" />
		<edge from-layer="1038" from-port="0" to-layer="1039" to-port="0" />
		<edge from-layer="1039" from-port="1" to-layer="1041" to-port="0" />
		<edge from-layer="1040" from-port="0" to-layer="1041" to-port="1" />
		<edge from-layer="1041" from-port="2" to-layer="1042" to-port="1" />
		<edge from-layer="1042" from-port="2" to-layer="1045" to-port="0" />
		<edge from-layer="1043" from-port="0" to-layer="1044" to-port="0" />
		<edge from-layer="1044" from-port="1" to-layer="1045" to-port="1" />
		<edge from-layer="1045" from-port="2" to-layer="1046" to-port="0" />
		<edge from-layer="1046" from-port="1" to-layer="1051" to-port="0" />
		<edge from-layer="1047" from-port="0" to-layer="1051" to-port="1" />
		<edge from-layer="1048" from-port="0" to-layer="1051" to-port="2" />
		<edge from-layer="1049" from-port="0" to-layer="1051" to-port="3" />
		<edge from-layer="1050" from-port="0" to-layer="1051" to-port="4" />
		<edge from-layer="1051" from-port="5" to-layer="1056" to-port="0" />
		<edge from-layer="1052" from-port="0" to-layer="1053" to-port="0" />
		<edge from-layer="1053" from-port="1" to-layer="1055" to-port="0" />
		<edge from-layer="1054" from-port="0" to-layer="1055" to-port="1" />
		<edge from-layer="1055" from-port="2" to-layer="1056" to-port="1" />
		<edge from-layer="1056" from-port="2" to-layer="1059" to-port="0" />
		<edge from-layer="1057" from-port="0" to-layer="1058" to-port="0" />
		<edge from-layer="1058" from-port="1" to-layer="1059" to-port="1" />
		<edge from-layer="1059" from-port="2" to-layer="1060" to-port="0" />
		<edge from-layer="1060" from-port="1" to-layer="1065" to-port="0" />
		<edge from-layer="1061" from-port="0" to-layer="1065" to-port="1" />
		<edge from-layer="1062" from-port="0" to-layer="1065" to-port="2" />
		<edge from-layer="1063" from-port="0" to-layer="1065" to-port="3" />
		<edge from-layer="1064" from-port="0" to-layer="1065" to-port="4" />
		<edge from-layer="1065" from-port="5" to-layer="1070" to-port="0" />
		<edge from-layer="1066" from-port="0" to-layer="1067" to-port="0" />
		<edge from-layer="1067" from-port="1" to-layer="1069" to-port="0" />
		<edge from-layer="1068" from-port="0" to-layer="1069" to-port="1" />
		<edge from-layer="1069" from-port="2" to-layer="1070" to-port="1" />
		<edge from-layer="1070" from-port="2" to-layer="1073" to-port="0" />
		<edge from-layer="1071" from-port="0" to-layer="1072" to-port="0" />
		<edge from-layer="1072" from-port="1" to-layer="1073" to-port="1" />
		<edge from-layer="1073" from-port="2" to-layer="1138" to-port="0" />
		<edge from-layer="1074" from-port="0" to-layer="1075" to-port="0" />
		<edge from-layer="1075" from-port="1" to-layer="1077" to-port="0" />
		<edge from-layer="1076" from-port="0" to-layer="1077" to-port="1" />
		<edge from-layer="1077" from-port="2" to-layer="1078" to-port="1" />
		<edge from-layer="1078" from-port="2" to-layer="1081" to-port="0" />
		<edge from-layer="1079" from-port="0" to-layer="1080" to-port="0" />
		<edge from-layer="1080" from-port="1" to-layer="1081" to-port="1" />
		<edge from-layer="1081" from-port="2" to-layer="1082" to-port="0" />
		<edge from-layer="1082" from-port="1" to-layer="1087" to-port="0" />
		<edge from-layer="1083" from-port="0" to-layer="1087" to-port="1" />
		<edge from-layer="1084" from-port="0" to-layer="1087" to-port="2" />
		<edge from-layer="1085" from-port="0" to-layer="1087" to-port="3" />
		<edge from-layer="1086" from-port="0" to-layer="1087" to-port="4" />
		<edge from-layer="1087" from-port="5" to-layer="1092" to-port="0" />
		<edge from-layer="1088" from-port="0" to-layer="1089" to-port="0" />
		<edge from-layer="1089" from-port="1" to-layer="1091" to-port="0" />
		<edge from-layer="1090" from-port="0" to-layer="1091" to-port="1" />
		<edge from-layer="1091" from-port="2" to-layer="1092" to-port="1" />
		<edge from-layer="1092" from-port="2" to-layer="1095" to-port="0" />
		<edge from-layer="1093" from-port="0" to-layer="1094" to-port="0" />
		<edge from-layer="1094" from-port="1" to-layer="1095" to-port="1" />
		<edge from-layer="1095" from-port="2" to-layer="1096" to-port="0" />
		<edge from-layer="1096" from-port="1" to-layer="1101" to-port="0" />
		<edge from-layer="1097" from-port="0" to-layer="1101" to-port="1" />
		<edge from-layer="1098" from-port="0" to-layer="1101" to-port="2" />
		<edge from-layer="1099" from-port="0" to-layer="1101" to-port="3" />
		<edge from-layer="1100" from-port="0" to-layer="1101" to-port="4" />
		<edge from-layer="1101" from-port="5" to-layer="1106" to-port="0" />
		<edge from-layer="1102" from-port="0" to-layer="1103" to-port="0" />
		<edge from-layer="1103" from-port="1" to-layer="1105" to-port="0" />
		<edge from-layer="1104" from-port="0" to-layer="1105" to-port="1" />
		<edge from-layer="1105" from-port="2" to-layer="1106" to-port="1" />
		<edge from-layer="1106" from-port="2" to-layer="1109" to-port="0" />
		<edge from-layer="1107" from-port="0" to-layer="1108" to-port="0" />
		<edge from-layer="1108" from-port="1" to-layer="1109" to-port="1" />
		<edge from-layer="1109" from-port="2" to-layer="1110" to-port="0" />
		<edge from-layer="1110" from-port="1" to-layer="1115" to-port="0" />
		<edge from-layer="1111" from-port="0" to-layer="1115" to-port="1" />
		<edge from-layer="1112" from-port="0" to-layer="1115" to-port="2" />
		<edge from-layer="1113" from-port="0" to-layer="1115" to-port="3" />
		<edge from-layer="1114" from-port="0" to-layer="1115" to-port="4" />
		<edge from-layer="1115" from-port="5" to-layer="1120" to-port="0" />
		<edge from-layer="1116" from-port="0" to-layer="1117" to-port="0" />
		<edge from-layer="1117" from-port="1" to-layer="1119" to-port="0" />
		<edge from-layer="1118" from-port="0" to-layer="1119" to-port="1" />
		<edge from-layer="1119" from-port="2" to-layer="1120" to-port="1" />
		<edge from-layer="1120" from-port="2" to-layer="1123" to-port="0" />
		<edge from-layer="1121" from-port="0" to-layer="1122" to-port="0" />
		<edge from-layer="1122" from-port="1" to-layer="1123" to-port="1" />
		<edge from-layer="1123" from-port="2" to-layer="1124" to-port="0" />
		<edge from-layer="1124" from-port="1" to-layer="1129" to-port="0" />
		<edge from-layer="1125" from-port="0" to-layer="1129" to-port="1" />
		<edge from-layer="1126" from-port="0" to-layer="1129" to-port="2" />
		<edge from-layer="1127" from-port="0" to-layer="1129" to-port="3" />
		<edge from-layer="1128" from-port="0" to-layer="1129" to-port="4" />
		<edge from-layer="1129" from-port="5" to-layer="1134" to-port="0" />
		<edge from-layer="1130" from-port="0" to-layer="1131" to-port="0" />
		<edge from-layer="1131" from-port="1" to-layer="1133" to-port="0" />
		<edge from-layer="1132" from-port="0" to-layer="1133" to-port="1" />
		<edge from-layer="1133" from-port="2" to-layer="1134" to-port="1" />
		<edge from-layer="1134" from-port="2" to-layer="1137" to-port="0" />
		<edge from-layer="1135" from-port="0" to-layer="1136" to-port="0" />
		<edge from-layer="1136" from-port="1" to-layer="1137" to-port="1" />
		<edge from-layer="1137" from-port="2" to-layer="1138" to-port="1" />
		<edge from-layer="1138" from-port="2" to-layer="1471" to-port="0" />
		<edge from-layer="1138" from-port="2" to-layer="1139" to-port="0" />
		<edge from-layer="1139" from-port="1" to-layer="1153" to-port="0" />
		<edge from-layer="1139" from-port="1" to-layer="1142" to-port="0" />
		<edge from-layer="1140" from-port="0" to-layer="1142" to-port="1" />
		<edge from-layer="1141" from-port="0" to-layer="1142" to-port="2" />
		<edge from-layer="1142" from-port="3" to-layer="1523" to-port="0" />
		<edge from-layer="1142" from-port="3" to-layer="1144" to-port="1" />
		<edge from-layer="1143" from-port="0" to-layer="1144" to-port="2" />
		<edge from-layer="1144" from-port="3" to-layer="1147" to-port="0" />
		<edge from-layer="1145" from-port="0" to-layer="1146" to-port="0" />
		<edge from-layer="1146" from-port="1" to-layer="1147" to-port="1" />
		<edge from-layer="1147" from-port="2" to-layer="1160" to-port="0" />
		<edge from-layer="1147" from-port="2" to-layer="1149" to-port="0" />
		<edge from-layer="1148" from-port="0" to-layer="1149" to-port="1" />
		<edge from-layer="1149" from-port="2" to-layer="1162" to-port="0" />
		<edge from-layer="1150" from-port="0" to-layer="1155" to-port="0" />
		<edge from-layer="1151" from-port="0" to-layer="1153" to-port="1" />
		<edge from-layer="1152" from-port="0" to-layer="1153" to-port="2" />
		<edge from-layer="1153" from-port="3" to-layer="1155" to-port="1" />
		<edge from-layer="1153" from-port="3" to-layer="1521" to-port="0" />
		<edge from-layer="1154" from-port="0" to-layer="1155" to-port="2" />
		<edge from-layer="1155" from-port="3" to-layer="1158" to-port="0" />
		<edge from-layer="1156" from-port="0" to-layer="1157" to-port="0" />
		<edge from-layer="1157" from-port="1" to-layer="1158" to-port="1" />
		<edge from-layer="1158" from-port="2" to-layer="1165" to-port="0" />
		<edge from-layer="1158" from-port="2" to-layer="1159" to-port="0" />
		<edge from-layer="1159" from-port="1" to-layer="1161" to-port="0" />
		<edge from-layer="1160" from-port="1" to-layer="1161" to-port="1" />
		<edge from-layer="1161" from-port="2" to-layer="1166" to-port="1" />
		<edge from-layer="1161" from-port="2" to-layer="1162" to-port="1" />
		<edge from-layer="1162" from-port="2" to-layer="1163" to-port="0" />
		<edge from-layer="1163" from-port="2" to-layer="1168" to-port="0" />
		<edge from-layer="1164" from-port="0" to-layer="1165" to-port="1" />
		<edge from-layer="1165" from-port="2" to-layer="1166" to-port="0" />
		<edge from-layer="1166" from-port="2" to-layer="1167" to-port="0" />
		<edge from-layer="1167" from-port="2" to-layer="1168" to-port="1" />
		<edge from-layer="1168" from-port="2" to-layer="1170" to-port="0" />
		<edge from-layer="1169" from-port="0" to-layer="1170" to-port="1" />
		<edge from-layer="1170" from-port="2" to-layer="1463" to-port="1" />
		<edge from-layer="1171" from-port="0" to-layer="1436" to-port="0" />
		<edge from-layer="1172" from-port="0" to-layer="1173" to-port="0" />
		<edge from-layer="1173" from-port="1" to-layer="1175" to-port="0" />
		<edge from-layer="1174" from-port="0" to-layer="1175" to-port="1" />
		<edge from-layer="1175" from-port="2" to-layer="1176" to-port="1" />
		<edge from-layer="1176" from-port="2" to-layer="1179" to-port="0" />
		<edge from-layer="1177" from-port="0" to-layer="1178" to-port="0" />
		<edge from-layer="1178" from-port="1" to-layer="1179" to-port="1" />
		<edge from-layer="1179" from-port="2" to-layer="1180" to-port="0" />
		<edge from-layer="1180" from-port="1" to-layer="1185" to-port="0" />
		<edge from-layer="1181" from-port="0" to-layer="1185" to-port="1" />
		<edge from-layer="1182" from-port="0" to-layer="1185" to-port="2" />
		<edge from-layer="1183" from-port="0" to-layer="1185" to-port="3" />
		<edge from-layer="1184" from-port="0" to-layer="1185" to-port="4" />
		<edge from-layer="1185" from-port="5" to-layer="1186" to-port="0" />
		<edge from-layer="1186" from-port="2" to-layer="1191" to-port="0" />
		<edge from-layer="1187" from-port="0" to-layer="1188" to-port="0" />
		<edge from-layer="1188" from-port="1" to-layer="1190" to-port="0" />
		<edge from-layer="1189" from-port="0" to-layer="1190" to-port="1" />
		<edge from-layer="1190" from-port="2" to-layer="1191" to-port="1" />
		<edge from-layer="1191" from-port="2" to-layer="1194" to-port="0" />
		<edge from-layer="1192" from-port="0" to-layer="1193" to-port="0" />
		<edge from-layer="1193" from-port="1" to-layer="1194" to-port="1" />
		<edge from-layer="1194" from-port="2" to-layer="1195" to-port="0" />
		<edge from-layer="1195" from-port="1" to-layer="1200" to-port="0" />
		<edge from-layer="1196" from-port="0" to-layer="1200" to-port="1" />
		<edge from-layer="1197" from-port="0" to-layer="1200" to-port="2" />
		<edge from-layer="1198" from-port="0" to-layer="1200" to-port="3" />
		<edge from-layer="1199" from-port="0" to-layer="1200" to-port="4" />
		<edge from-layer="1200" from-port="5" to-layer="1203" to-port="0" />
		<edge from-layer="1201" from-port="0" to-layer="1203" to-port="1" />
		<edge from-layer="1202" from-port="0" to-layer="1203" to-port="2" />
		<edge from-layer="1203" from-port="4" to-layer="1315" to-port="1" />
		<edge from-layer="1203" from-port="3" to-layer="1315" to-port="0" />
		<edge from-layer="1203" from-port="4" to-layer="1290" to-port="0" />
		<edge from-layer="1203" from-port="4" to-layer="1208" to-port="0" />
		<edge from-layer="1204" from-port="0" to-layer="1205" to-port="0" />
		<edge from-layer="1205" from-port="1" to-layer="1207" to-port="0" />
		<edge from-layer="1206" from-port="0" to-layer="1207" to-port="1" />
		<edge from-layer="1207" from-port="2" to-layer="1208" to-port="1" />
		<edge from-layer="1208" from-port="2" to-layer="1211" to-port="0" />
		<edge from-layer="1209" from-port="0" to-layer="1210" to-port="0" />
		<edge from-layer="1210" from-port="1" to-layer="1211" to-port="1" />
		<edge from-layer="1211" from-port="2" to-layer="1212" to-port="0" />
		<edge from-layer="1212" from-port="1" to-layer="1217" to-port="0" />
		<edge from-layer="1213" from-port="0" to-layer="1217" to-port="1" />
		<edge from-layer="1214" from-port="0" to-layer="1217" to-port="2" />
		<edge from-layer="1215" from-port="0" to-layer="1217" to-port="3" />
		<edge from-layer="1216" from-port="0" to-layer="1217" to-port="4" />
		<edge from-layer="1217" from-port="5" to-layer="1246" to-port="0" />
		<edge from-layer="1217" from-port="5" to-layer="1222" to-port="0" />
		<edge from-layer="1218" from-port="0" to-layer="1219" to-port="0" />
		<edge from-layer="1219" from-port="1" to-layer="1221" to-port="0" />
		<edge from-layer="1220" from-port="0" to-layer="1221" to-port="1" />
		<edge from-layer="1221" from-port="2" to-layer="1222" to-port="1" />
		<edge from-layer="1222" from-port="2" to-layer="1225" to-port="0" />
		<edge from-layer="1223" from-port="0" to-layer="1224" to-port="0" />
		<edge from-layer="1224" from-port="1" to-layer="1225" to-port="1" />
		<edge from-layer="1225" from-port="2" to-layer="1226" to-port="0" />
		<edge from-layer="1226" from-port="1" to-layer="1231" to-port="0" />
		<edge from-layer="1227" from-port="0" to-layer="1231" to-port="1" />
		<edge from-layer="1228" from-port="0" to-layer="1231" to-port="2" />
		<edge from-layer="1229" from-port="0" to-layer="1231" to-port="3" />
		<edge from-layer="1230" from-port="0" to-layer="1231" to-port="4" />
		<edge from-layer="1231" from-port="5" to-layer="1236" to-port="0" />
		<edge from-layer="1232" from-port="0" to-layer="1233" to-port="0" />
		<edge from-layer="1233" from-port="1" to-layer="1235" to-port="0" />
		<edge from-layer="1234" from-port="0" to-layer="1235" to-port="1" />
		<edge from-layer="1235" from-port="2" to-layer="1236" to-port="1" />
		<edge from-layer="1236" from-port="2" to-layer="1239" to-port="0" />
		<edge from-layer="1237" from-port="0" to-layer="1238" to-port="0" />
		<edge from-layer="1238" from-port="1" to-layer="1239" to-port="1" />
		<edge from-layer="1239" from-port="2" to-layer="1240" to-port="0" />
		<edge from-layer="1240" from-port="1" to-layer="1245" to-port="0" />
		<edge from-layer="1241" from-port="0" to-layer="1245" to-port="1" />
		<edge from-layer="1242" from-port="0" to-layer="1245" to-port="2" />
		<edge from-layer="1243" from-port="0" to-layer="1245" to-port="3" />
		<edge from-layer="1244" from-port="0" to-layer="1245" to-port="4" />
		<edge from-layer="1245" from-port="5" to-layer="1246" to-port="1" />
		<edge from-layer="1246" from-port="2" to-layer="1251" to-port="0" />
		<edge from-layer="1247" from-port="0" to-layer="1251" to-port="1" />
		<edge from-layer="1248" from-port="0" to-layer="1251" to-port="2" />
		<edge from-layer="1249" from-port="0" to-layer="1251" to-port="3" />
		<edge from-layer="1250" from-port="0" to-layer="1251" to-port="4" />
		<edge from-layer="1251" from-port="5" to-layer="1256" to-port="0" />
		<edge from-layer="1251" from-port="5" to-layer="1280" to-port="0" />
		<edge from-layer="1252" from-port="0" to-layer="1253" to-port="0" />
		<edge from-layer="1253" from-port="1" to-layer="1255" to-port="0" />
		<edge from-layer="1254" from-port="0" to-layer="1255" to-port="1" />
		<edge from-layer="1255" from-port="2" to-layer="1256" to-port="1" />
		<edge from-layer="1256" from-port="2" to-layer="1259" to-port="0" />
		<edge from-layer="1257" from-port="0" to-layer="1258" to-port="0" />
		<edge from-layer="1258" from-port="1" to-layer="1259" to-port="1" />
		<edge from-layer="1259" from-port="2" to-layer="1260" to-port="0" />
		<edge from-layer="1260" from-port="1" to-layer="1265" to-port="0" />
		<edge from-layer="1261" from-port="0" to-layer="1265" to-port="1" />
		<edge from-layer="1262" from-port="0" to-layer="1265" to-port="2" />
		<edge from-layer="1263" from-port="0" to-layer="1265" to-port="3" />
		<edge from-layer="1264" from-port="0" to-layer="1265" to-port="4" />
		<edge from-layer="1265" from-port="5" to-layer="1270" to-port="0" />
		<edge from-layer="1266" from-port="0" to-layer="1267" to-port="0" />
		<edge from-layer="1267" from-port="1" to-layer="1269" to-port="0" />
		<edge from-layer="1268" from-port="0" to-layer="1269" to-port="1" />
		<edge from-layer="1269" from-port="2" to-layer="1270" to-port="1" />
		<edge from-layer="1270" from-port="2" to-layer="1273" to-port="0" />
		<edge from-layer="1271" from-port="0" to-layer="1272" to-port="0" />
		<edge from-layer="1272" from-port="1" to-layer="1273" to-port="1" />
		<edge from-layer="1273" from-port="2" to-layer="1274" to-port="0" />
		<edge from-layer="1274" from-port="1" to-layer="1279" to-port="0" />
		<edge from-layer="1275" from-port="0" to-layer="1279" to-port="1" />
		<edge from-layer="1276" from-port="0" to-layer="1279" to-port="2" />
		<edge from-layer="1277" from-port="0" to-layer="1279" to-port="3" />
		<edge from-layer="1278" from-port="0" to-layer="1279" to-port="4" />
		<edge from-layer="1279" from-port="5" to-layer="1280" to-port="1" />
		<edge from-layer="1280" from-port="2" to-layer="1285" to-port="0" />
		<edge from-layer="1281" from-port="0" to-layer="1285" to-port="1" />
		<edge from-layer="1282" from-port="0" to-layer="1285" to-port="2" />
		<edge from-layer="1283" from-port="0" to-layer="1285" to-port="3" />
		<edge from-layer="1284" from-port="0" to-layer="1285" to-port="4" />
		<edge from-layer="1285" from-port="5" to-layer="1300" to-port="0" />
		<edge from-layer="1286" from-port="0" to-layer="1287" to-port="0" />
		<edge from-layer="1287" from-port="1" to-layer="1289" to-port="0" />
		<edge from-layer="1288" from-port="0" to-layer="1289" to-port="1" />
		<edge from-layer="1289" from-port="2" to-layer="1290" to-port="1" />
		<edge from-layer="1290" from-port="2" to-layer="1293" to-port="0" />
		<edge from-layer="1291" from-port="0" to-layer="1292" to-port="0" />
		<edge from-layer="1292" from-port="1" to-layer="1293" to-port="1" />
		<edge from-layer="1293" from-port="2" to-layer="1294" to-port="0" />
		<edge from-layer="1294" from-port="1" to-layer="1299" to-port="0" />
		<edge from-layer="1295" from-port="0" to-layer="1299" to-port="1" />
		<edge from-layer="1296" from-port="0" to-layer="1299" to-port="2" />
		<edge from-layer="1297" from-port="0" to-layer="1299" to-port="3" />
		<edge from-layer="1298" from-port="0" to-layer="1299" to-port="4" />
		<edge from-layer="1299" from-port="5" to-layer="1300" to-port="1" />
		<edge from-layer="1300" from-port="2" to-layer="1305" to-port="0" />
		<edge from-layer="1301" from-port="0" to-layer="1302" to-port="0" />
		<edge from-layer="1302" from-port="1" to-layer="1304" to-port="0" />
		<edge from-layer="1303" from-port="0" to-layer="1304" to-port="1" />
		<edge from-layer="1304" from-port="2" to-layer="1305" to-port="1" />
		<edge from-layer="1305" from-port="2" to-layer="1308" to-port="0" />
		<edge from-layer="1306" from-port="0" to-layer="1307" to-port="0" />
		<edge from-layer="1307" from-port="1" to-layer="1308" to-port="1" />
		<edge from-layer="1308" from-port="2" to-layer="1309" to-port="0" />
		<edge from-layer="1309" from-port="1" to-layer="1314" to-port="0" />
		<edge from-layer="1310" from-port="0" to-layer="1314" to-port="1" />
		<edge from-layer="1311" from-port="0" to-layer="1314" to-port="2" />
		<edge from-layer="1312" from-port="0" to-layer="1314" to-port="3" />
		<edge from-layer="1313" from-port="0" to-layer="1314" to-port="4" />
		<edge from-layer="1314" from-port="5" to-layer="1315" to-port="2" />
		<edge from-layer="1315" from-port="3" to-layer="1320" to-port="0" />
		<edge from-layer="1316" from-port="0" to-layer="1317" to-port="0" />
		<edge from-layer="1317" from-port="1" to-layer="1319" to-port="0" />
		<edge from-layer="1318" from-port="0" to-layer="1319" to-port="1" />
		<edge from-layer="1319" from-port="2" to-layer="1320" to-port="1" />
		<edge from-layer="1320" from-port="2" to-layer="1323" to-port="0" />
		<edge from-layer="1321" from-port="0" to-layer="1322" to-port="0" />
		<edge from-layer="1322" from-port="1" to-layer="1323" to-port="1" />
		<edge from-layer="1323" from-port="2" to-layer="1324" to-port="0" />
		<edge from-layer="1324" from-port="1" to-layer="1329" to-port="0" />
		<edge from-layer="1325" from-port="0" to-layer="1329" to-port="1" />
		<edge from-layer="1326" from-port="0" to-layer="1329" to-port="2" />
		<edge from-layer="1327" from-port="0" to-layer="1329" to-port="3" />
		<edge from-layer="1328" from-port="0" to-layer="1329" to-port="4" />
		<edge from-layer="1329" from-port="5" to-layer="1334" to-port="0" />
		<edge from-layer="1329" from-port="5" to-layer="1370" to-port="0" />
		<edge from-layer="1330" from-port="0" to-layer="1331" to-port="0" />
		<edge from-layer="1331" from-port="1" to-layer="1333" to-port="0" />
		<edge from-layer="1332" from-port="0" to-layer="1333" to-port="1" />
		<edge from-layer="1333" from-port="2" to-layer="1334" to-port="1" />
		<edge from-layer="1334" from-port="2" to-layer="1337" to-port="0" />
		<edge from-layer="1335" from-port="0" to-layer="1336" to-port="0" />
		<edge from-layer="1336" from-port="1" to-layer="1337" to-port="1" />
		<edge from-layer="1337" from-port="2" to-layer="1338" to-port="0" />
		<edge from-layer="1338" from-port="1" to-layer="1343" to-port="0" />
		<edge from-layer="1339" from-port="0" to-layer="1343" to-port="1" />
		<edge from-layer="1340" from-port="0" to-layer="1343" to-port="2" />
		<edge from-layer="1341" from-port="0" to-layer="1343" to-port="3" />
		<edge from-layer="1342" from-port="0" to-layer="1343" to-port="4" />
		<edge from-layer="1343" from-port="5" to-layer="1348" to-port="0" />
		<edge from-layer="1344" from-port="0" to-layer="1345" to-port="0" />
		<edge from-layer="1345" from-port="1" to-layer="1347" to-port="0" />
		<edge from-layer="1346" from-port="0" to-layer="1347" to-port="1" />
		<edge from-layer="1347" from-port="2" to-layer="1348" to-port="1" />
		<edge from-layer="1348" from-port="2" to-layer="1351" to-port="0" />
		<edge from-layer="1349" from-port="0" to-layer="1350" to-port="0" />
		<edge from-layer="1350" from-port="1" to-layer="1351" to-port="1" />
		<edge from-layer="1351" from-port="2" to-layer="1352" to-port="0" />
		<edge from-layer="1352" from-port="1" to-layer="1357" to-port="0" />
		<edge from-layer="1353" from-port="0" to-layer="1357" to-port="1" />
		<edge from-layer="1354" from-port="0" to-layer="1357" to-port="2" />
		<edge from-layer="1355" from-port="0" to-layer="1357" to-port="3" />
		<edge from-layer="1356" from-port="0" to-layer="1357" to-port="4" />
		<edge from-layer="1357" from-port="5" to-layer="1362" to-port="0" />
		<edge from-layer="1358" from-port="0" to-layer="1359" to-port="0" />
		<edge from-layer="1359" from-port="1" to-layer="1361" to-port="0" />
		<edge from-layer="1360" from-port="0" to-layer="1361" to-port="1" />
		<edge from-layer="1361" from-port="2" to-layer="1362" to-port="1" />
		<edge from-layer="1362" from-port="2" to-layer="1365" to-port="0" />
		<edge from-layer="1363" from-port="0" to-layer="1364" to-port="0" />
		<edge from-layer="1364" from-port="1" to-layer="1365" to-port="1" />
		<edge from-layer="1365" from-port="2" to-layer="1430" to-port="0" />
		<edge from-layer="1366" from-port="0" to-layer="1367" to-port="0" />
		<edge from-layer="1367" from-port="1" to-layer="1369" to-port="0" />
		<edge from-layer="1368" from-port="0" to-layer="1369" to-port="1" />
		<edge from-layer="1369" from-port="2" to-layer="1370" to-port="1" />
		<edge from-layer="1370" from-port="2" to-layer="1373" to-port="0" />
		<edge from-layer="1371" from-port="0" to-layer="1372" to-port="0" />
		<edge from-layer="1372" from-port="1" to-layer="1373" to-port="1" />
		<edge from-layer="1373" from-port="2" to-layer="1374" to-port="0" />
		<edge from-layer="1374" from-port="1" to-layer="1379" to-port="0" />
		<edge from-layer="1375" from-port="0" to-layer="1379" to-port="1" />
		<edge from-layer="1376" from-port="0" to-layer="1379" to-port="2" />
		<edge from-layer="1377" from-port="0" to-layer="1379" to-port="3" />
		<edge from-layer="1378" from-port="0" to-layer="1379" to-port="4" />
		<edge from-layer="1379" from-port="5" to-layer="1384" to-port="0" />
		<edge from-layer="1380" from-port="0" to-layer="1381" to-port="0" />
		<edge from-layer="1381" from-port="1" to-layer="1383" to-port="0" />
		<edge from-layer="1382" from-port="0" to-layer="1383" to-port="1" />
		<edge from-layer="1383" from-port="2" to-layer="1384" to-port="1" />
		<edge from-layer="1384" from-port="2" to-layer="1387" to-port="0" />
		<edge from-layer="1385" from-port="0" to-layer="1386" to-port="0" />
		<edge from-layer="1386" from-port="1" to-layer="1387" to-port="1" />
		<edge from-layer="1387" from-port="2" to-layer="1388" to-port="0" />
		<edge from-layer="1388" from-port="1" to-layer="1393" to-port="0" />
		<edge from-layer="1389" from-port="0" to-layer="1393" to-port="1" />
		<edge from-layer="1390" from-port="0" to-layer="1393" to-port="2" />
		<edge from-layer="1391" from-port="0" to-layer="1393" to-port="3" />
		<edge from-layer="1392" from-port="0" to-layer="1393" to-port="4" />
		<edge from-layer="1393" from-port="5" to-layer="1398" to-port="0" />
		<edge from-layer="1394" from-port="0" to-layer="1395" to-port="0" />
		<edge from-layer="1395" from-port="1" to-layer="1397" to-port="0" />
		<edge from-layer="1396" from-port="0" to-layer="1397" to-port="1" />
		<edge from-layer="1397" from-port="2" to-layer="1398" to-port="1" />
		<edge from-layer="1398" from-port="2" to-layer="1401" to-port="0" />
		<edge from-layer="1399" from-port="0" to-layer="1400" to-port="0" />
		<edge from-layer="1400" from-port="1" to-layer="1401" to-port="1" />
		<edge from-layer="1401" from-port="2" to-layer="1402" to-port="0" />
		<edge from-layer="1402" from-port="1" to-layer="1407" to-port="0" />
		<edge from-layer="1403" from-port="0" to-layer="1407" to-port="1" />
		<edge from-layer="1404" from-port="0" to-layer="1407" to-port="2" />
		<edge from-layer="1405" from-port="0" to-layer="1407" to-port="3" />
		<edge from-layer="1406" from-port="0" to-layer="1407" to-port="4" />
		<edge from-layer="1407" from-port="5" to-layer="1412" to-port="0" />
		<edge from-layer="1408" from-port="0" to-layer="1409" to-port="0" />
		<edge from-layer="1409" from-port="1" to-layer="1411" to-port="0" />
		<edge from-layer="1410" from-port="0" to-layer="1411" to-port="1" />
		<edge from-layer="1411" from-port="2" to-layer="1412" to-port="1" />
		<edge from-layer="1412" from-port="2" to-layer="1415" to-port="0" />
		<edge from-layer="1413" from-port="0" to-layer="1414" to-port="0" />
		<edge from-layer="1414" from-port="1" to-layer="1415" to-port="1" />
		<edge from-layer="1415" from-port="2" to-layer="1416" to-port="0" />
		<edge from-layer="1416" from-port="1" to-layer="1421" to-port="0" />
		<edge from-layer="1417" from-port="0" to-layer="1421" to-port="1" />
		<edge from-layer="1418" from-port="0" to-layer="1421" to-port="2" />
		<edge from-layer="1419" from-port="0" to-layer="1421" to-port="3" />
		<edge from-layer="1420" from-port="0" to-layer="1421" to-port="4" />
		<edge from-layer="1421" from-port="5" to-layer="1426" to-port="0" />
		<edge from-layer="1422" from-port="0" to-layer="1423" to-port="0" />
		<edge from-layer="1423" from-port="1" to-layer="1425" to-port="0" />
		<edge from-layer="1424" from-port="0" to-layer="1425" to-port="1" />
		<edge from-layer="1425" from-port="2" to-layer="1426" to-port="1" />
		<edge from-layer="1426" from-port="2" to-layer="1429" to-port="0" />
		<edge from-layer="1427" from-port="0" to-layer="1428" to-port="0" />
		<edge from-layer="1428" from-port="1" to-layer="1429" to-port="1" />
		<edge from-layer="1429" from-port="2" to-layer="1430" to-port="1" />
		<edge from-layer="1430" from-port="2" to-layer="1473" to-port="0" />
		<edge from-layer="1430" from-port="2" to-layer="1431" to-port="0" />
		<edge from-layer="1431" from-port="1" to-layer="1445" to-port="0" />
		<edge from-layer="1431" from-port="1" to-layer="1434" to-port="0" />
		<edge from-layer="1432" from-port="0" to-layer="1434" to-port="1" />
		<edge from-layer="1433" from-port="0" to-layer="1434" to-port="2" />
		<edge from-layer="1434" from-port="3" to-layer="1532" to-port="0" />
		<edge from-layer="1434" from-port="3" to-layer="1436" to-port="1" />
		<edge from-layer="1435" from-port="0" to-layer="1436" to-port="2" />
		<edge from-layer="1436" from-port="3" to-layer="1439" to-port="0" />
		<edge from-layer="1437" from-port="0" to-layer="1438" to-port="0" />
		<edge from-layer="1438" from-port="1" to-layer="1439" to-port="1" />
		<edge from-layer="1439" from-port="2" to-layer="1441" to-port="0" />
		<edge from-layer="1439" from-port="2" to-layer="1452" to-port="0" />
		<edge from-layer="1440" from-port="0" to-layer="1441" to-port="1" />
		<edge from-layer="1441" from-port="2" to-layer="1454" to-port="0" />
		<edge from-layer="1442" from-port="0" to-layer="1447" to-port="0" />
		<edge from-layer="1443" from-port="0" to-layer="1445" to-port="1" />
		<edge from-layer="1444" from-port="0" to-layer="1445" to-port="2" />
		<edge from-layer="1445" from-port="3" to-layer="1447" to-port="1" />
		<edge from-layer="1445" from-port="3" to-layer="1530" to-port="0" />
		<edge from-layer="1446" from-port="0" to-layer="1447" to-port="2" />
		<edge from-layer="1447" from-port="3" to-layer="1450" to-port="0" />
		<edge from-layer="1448" from-port="0" to-layer="1449" to-port="0" />
		<edge from-layer="1449" from-port="1" to-layer="1450" to-port="1" />
		<edge from-layer="1450" from-port="2" to-layer="1451" to-port="0" />
		<edge from-layer="1450" from-port="2" to-layer="1457" to-port="0" />
		<edge from-layer="1451" from-port="1" to-layer="1453" to-port="0" />
		<edge from-layer="1452" from-port="1" to-layer="1453" to-port="1" />
		<edge from-layer="1453" from-port="2" to-layer="1458" to-port="1" />
		<edge from-layer="1453" from-port="2" to-layer="1454" to-port="1" />
		<edge from-layer="1454" from-port="2" to-layer="1455" to-port="0" />
		<edge from-layer="1455" from-port="2" to-layer="1460" to-port="0" />
		<edge from-layer="1456" from-port="0" to-layer="1457" to-port="1" />
		<edge from-layer="1457" from-port="2" to-layer="1458" to-port="0" />
		<edge from-layer="1458" from-port="2" to-layer="1459" to-port="0" />
		<edge from-layer="1459" from-port="2" to-layer="1460" to-port="1" />
		<edge from-layer="1460" from-port="2" to-layer="1462" to-port="0" />
		<edge from-layer="1461" from-port="0" to-layer="1462" to-port="1" />
		<edge from-layer="1462" from-port="2" to-layer="1463" to-port="2" />
		<edge from-layer="1463" from-port="3" to-layer="1465" to-port="0" />
		<edge from-layer="1464" from-port="0" to-layer="1465" to-port="1" />
		<edge from-layer="1465" from-port="2" to-layer="1467" to-port="0" />
		<edge from-layer="1466" from-port="0" to-layer="1467" to-port="1" />
		<edge from-layer="1467" from-port="2" to-layer="1501" to-port="0" />
		<edge from-layer="1467" from-port="2" to-layer="1500" to-port="0" />
		<edge from-layer="1468" from-port="0" to-layer="1469" to-port="1" />
		<edge from-layer="1469" from-port="2" to-layer="1474" to-port="0" />
		<edge from-layer="1470" from-port="0" to-layer="1471" to-port="1" />
		<edge from-layer="1471" from-port="2" to-layer="1474" to-port="1" />
		<edge from-layer="1472" from-port="0" to-layer="1473" to-port="1" />
		<edge from-layer="1473" from-port="2" to-layer="1474" to-port="2" />
		<edge from-layer="1474" from-port="3" to-layer="1477" to-port="0" />
		<edge from-layer="1475" from-port="0" to-layer="1477" to-port="1" />
		<edge from-layer="1475" from-port="0" to-layer="1490" to-port="1" />
		<edge from-layer="1475" from-port="0" to-layer="1499" to-port="1" />
		<edge from-layer="1476" from-port="0" to-layer="1477" to-port="2" />
		<edge from-layer="1477" from-port="4" to-layer="1540" to-port="0" />
		<edge from-layer="1477" from-port="3" to-layer="1479" to-port="0" />
		<edge from-layer="1478" from-port="0" to-layer="1479" to-port="1" />
		<edge from-layer="1479" from-port="2" to-layer="1481" to-port="0" />
		<edge from-layer="1480" from-port="0" to-layer="1481" to-port="1" />
		<edge from-layer="1481" from-port="2" to-layer="1482" to-port="0" />
		<edge from-layer="1482" from-port="1" to-layer="1485" to-port="0" />
		<edge from-layer="1483" from-port="0" to-layer="1484" to-port="0" />
		<edge from-layer="1484" from-port="1" to-layer="1485" to-port="1" />
		<edge from-layer="1485" from-port="2" to-layer="1487" to-port="0" />
		<edge from-layer="1486" from-port="0" to-layer="1487" to-port="1" />
		<edge from-layer="1487" from-port="2" to-layer="1499" to-port="0" />
		<edge from-layer="1487" from-port="2" to-layer="1488" to-port="0" />
		<edge from-layer="1488" from-port="1" to-layer="1490" to-port="0" />
		<edge from-layer="1489" from-port="0" to-layer="1494" to-port="1" />
		<edge from-layer="1489" from-port="0" to-layer="1490" to-port="2" />
		<edge from-layer="1490" from-port="3" to-layer="1492" to-port="0" />
		<edge from-layer="1490" from-port="3" to-layer="1493" to-port="0" />
		<edge from-layer="1491" from-port="0" to-layer="1493" to-port="1" />
		<edge from-layer="1491" from-port="0" to-layer="1492" to-port="1" />
		<edge from-layer="1492" from-port="2" to-layer="1496" to-port="0" />
		<edge from-layer="1493" from-port="2" to-layer="1494" to-port="0" />
		<edge from-layer="1494" from-port="2" to-layer="1495" to-port="0" />
		<edge from-layer="1495" from-port="1" to-layer="1496" to-port="1" />
		<edge from-layer="1496" from-port="2" to-layer="1498" to-port="0" />
		<edge from-layer="1497" from-port="0" to-layer="1498" to-port="1" />
		<edge from-layer="1498" from-port="2" to-layer="1499" to-port="2" />
		<edge from-layer="1499" from-port="4" to-layer="1501" to-port="1" />
		<edge from-layer="1499" from-port="3" to-layer="1500" to-port="1" />
		<edge from-layer="1500" from-port="2" to-layer="1502" to-port="0" />
		<edge from-layer="1500" from-port="2" to-layer="1506" to-port="1" />
		<edge from-layer="1501" from-port="2" to-layer="1502" to-port="1" />
		<edge from-layer="1501" from-port="2" to-layer="1506" to-port="0" />
		<edge from-layer="1502" from-port="2" to-layer="1505" to-port="0" />
		<edge from-layer="1503" from-port="0" to-layer="1504" to-port="0" />
		<edge from-layer="1504" from-port="1" to-layer="1505" to-port="1" />
		<edge from-layer="1505" from-port="2" to-layer="1507" to-port="0" />
		<edge from-layer="1506" from-port="2" to-layer="1507" to-port="1" />
		<edge from-layer="1507" from-port="2" to-layer="1539" to-port="0" />
		<edge from-layer="1508" from-port="0" to-layer="1509" to-port="0" />
		<edge from-layer="1509" from-port="1" to-layer="1517" to-port="0" />
		<edge from-layer="1510" from-port="0" to-layer="1511" to-port="1" />
		<edge from-layer="1511" from-port="2" to-layer="1514" to-port="0" />
		<edge from-layer="1512" from-port="0" to-layer="1513" to-port="1" />
		<edge from-layer="1513" from-port="2" to-layer="1514" to-port="1" />
		<edge from-layer="1514" from-port="2" to-layer="1516" to-port="0" />
		<edge from-layer="1515" from-port="0" to-layer="1516" to-port="1" />
		<edge from-layer="1515" from-port="0" to-layer="1534" to-port="1" />
		<edge from-layer="1515" from-port="0" to-layer="1525" to-port="1" />
		<edge from-layer="1516" from-port="2" to-layer="1517" to-port="1" />
		<edge from-layer="1517" from-port="2" to-layer="1536" to-port="0" />
		<edge from-layer="1518" from-port="0" to-layer="1519" to-port="0" />
		<edge from-layer="1519" from-port="1" to-layer="1526" to-port="0" />
		<edge from-layer="1520" from-port="0" to-layer="1521" to-port="1" />
		<edge from-layer="1521" from-port="2" to-layer="1524" to-port="0" />
		<edge from-layer="1522" from-port="0" to-layer="1523" to-port="1" />
		<edge from-layer="1523" from-port="2" to-layer="1524" to-port="1" />
		<edge from-layer="1524" from-port="2" to-layer="1525" to-port="0" />
		<edge from-layer="1525" from-port="2" to-layer="1526" to-port="1" />
		<edge from-layer="1526" from-port="2" to-layer="1536" to-port="1" />
		<edge from-layer="1527" from-port="0" to-layer="1528" to-port="0" />
		<edge from-layer="1528" from-port="1" to-layer="1535" to-port="0" />
		<edge from-layer="1529" from-port="0" to-layer="1530" to-port="1" />
		<edge from-layer="1530" from-port="2" to-layer="1533" to-port="0" />
		<edge from-layer="1531" from-port="0" to-layer="1532" to-port="1" />
		<edge from-layer="1532" from-port="2" to-layer="1533" to-port="1" />
		<edge from-layer="1533" from-port="2" to-layer="1534" to-port="0" />
		<edge from-layer="1534" from-port="2" to-layer="1535" to-port="1" />
		<edge from-layer="1535" from-port="2" to-layer="1536" to-port="2" />
		<edge from-layer="1536" from-port="3" to-layer="1538" to-port="0" />
		<edge from-layer="1537" from-port="0" to-layer="1538" to-port="1" />
		<edge from-layer="1538" from-port="2" to-layer="1539" to-port="1" />
		<edge from-layer="1539" from-port="2" to-layer="1541" to-port="0" />
		<edge from-layer="1540" from-port="1" to-layer="1541" to-port="1" />
		<edge from-layer="1541" from-port="2" to-layer="1542" to-port="0" />
	</edges>
	<rt_info>
		<Runtime_version value="2024.4.0-16579-c3152d32c9c-releases/2024/4" />
		<conversion_parameters>
			<framework value="pytorch" />
			<is_python_object value="True" />
		</conversion_parameters>
		<model_info>
			<iou_threshold value="0.7" />
			<labels value="person bicycle car motorcycle airplane bus train truck boat traffic_light fire_hydrant stop_sign parking_meter bench bird cat dog horse sheep cow elephant bear zebra giraffe backpack umbrella handbag tie suitcase frisbee skis snowboard sports_ball kite baseball_bat baseball_glove skateboard surfboard tennis_racket bottle wine_glass cup fork knife spoon bowl banana apple sandwich orange broccoli carrot hot_dog pizza donut cake chair couch potted_plant bed dining_table toilet tv laptop mouse remote keyboard cell_phone microwave oven toaster sink refrigerator book clock vase scissors teddy_bear hair_drier toothbrush" />
			<model_type value="YOLOv8" />
			<pad_value value="114" />
			<resize_type value="fit_to_window_letterbox" />
			<reverse_input_channels value="YES" />
			<scale_values value="255" />
		</model_info>
		<nncf>
			<friendly_names_were_updated value="True" />
			<quantization>
				<advanced_parameters value="{}" />
				<fast_bias_correction value="True" />
				<ignored_scope>
					<subgraphs value="[{'inputs': ['__module.model.23/aten::cat/Concat', '__module.model.23/aten::cat/Concat_1', '__module.model.23/aten::cat/Concat_2'], 'outputs': ['__module.model.23/aten::cat/Concat_7']}]" />
				</ignored_scope>
				<model_type value="None" />
				<preset value="mixed" />
				<subset_size value="300" />
				<target_device value="ANY" />
			</quantization>
		</nncf>
	</rt_info>
</net>
